<?xml version="1.0"?>
<net name="main_graph" version="11">
	<layers>
		<layer id="0" name="images" type="Parameter" version="opset1">
			<data shape="?,3,?,?" element_type="f32" />
			<rt_info>
				<attribute name="old_api_map_element_type" version="0" value="f16" />
			</rt_info>
			<output>
				<port id="0" precision="FP32" names="images">
					<dim>-1</dim>
					<dim>3</dim>
					<dim>-1</dim>
					<dim>-1</dim>
				</port>
			</output>
		</layer>
		<layer id="1" name="/model.22/Constant_8_compressed" type="Const" version="opset1">
			<data element_type="f16" shape="" offset="0" size="2" />
			<output>
				<port id="0" precision="FP16" names="/model.22/Constant_8_output_0" />
			</output>
		</layer>
		<layer id="2" name="/model.22/Constant_8" type="Convert" version="opset1">
			<data destination_type="f32" />
			<rt_info>
				<attribute name="decompression" version="0" />
			</rt_info>
			<input>
				<port id="0" precision="FP16" />
			</input>
			<output>
				<port id="1" precision="FP32" />
			</output>
		</layer>
		<layer id="3" name="Constant_316523_compressed" type="Const" version="opset1">
			<data element_type="f16" shape="" offset="2" size="2" />
			<output>
				<port id="0" precision="FP16" />
			</output>
		</layer>
		<layer id="4" name="Constant_316523" type="Convert" version="opset1">
			<data destination_type="f32" />
			<rt_info>
				<attribute name="decompression" version="0" />
			</rt_info>
			<input>
				<port id="0" precision="FP16" />
			</input>
			<output>
				<port id="1" precision="FP32" />
			</output>
		</layer>
		<layer id="5" name="Constant_316524_compressed" type="Const" version="opset1">
			<data element_type="f16" shape="" offset="4" size="2" />
			<output>
				<port id="0" precision="FP16" />
			</output>
		</layer>
		<layer id="6" name="Constant_316524" type="Convert" version="opset1">
			<data destination_type="f32" />
			<rt_info>
				<attribute name="decompression" version="0" />
			</rt_info>
			<input>
				<port id="0" precision="FP16" />
			</input>
			<output>
				<port id="1" precision="FP32" />
			</output>
		</layer>
		<layer id="7" name="Constant_316525_compressed" type="Const" version="opset1">
			<data element_type="f16" shape="" offset="6" size="2" />
			<output>
				<port id="0" precision="FP16" />
			</output>
		</layer>
		<layer id="8" name="Constant_316525" type="Convert" version="opset1">
			<data destination_type="f32" />
			<rt_info>
				<attribute name="decompression" version="0" />
			</rt_info>
			<input>
				<port id="0" precision="FP16" />
			</input>
			<output>
				<port id="1" precision="FP32" />
			</output>
		</layer>
		<layer id="9" name="Constant_316526_compressed" type="Const" version="opset1">
			<data element_type="f16" shape="" offset="8" size="2" />
			<output>
				<port id="0" precision="FP16" />
			</output>
		</layer>
		<layer id="10" name="Constant_316526" type="Convert" version="opset1">
			<data destination_type="f32" />
			<rt_info>
				<attribute name="decompression" version="0" />
			</rt_info>
			<input>
				<port id="0" precision="FP16" />
			</input>
			<output>
				<port id="1" precision="FP32" />
			</output>
		</layer>
		<layer id="11" name="images/fq_output_0" type="FakeQuantize" version="opset1">
			<data levels="256" auto_broadcast="numpy" />
			<input>
				<port id="0" precision="FP32">
					<dim>-1</dim>
					<dim>3</dim>
					<dim>-1</dim>
					<dim>-1</dim>
				</port>
				<port id="1" precision="FP32" />
				<port id="2" precision="FP32" />
				<port id="3" precision="FP32" />
				<port id="4" precision="FP32" />
			</input>
			<output>
				<port id="5" precision="FP32">
					<dim>-1</dim>
					<dim>3</dim>
					<dim>-1</dim>
					<dim>-1</dim>
				</port>
			</output>
		</layer>
		<layer id="12" name="model.0.conv.weight" type="Const" version="opset1">
			<data element_type="i8" shape="32, 3, 3, 3" offset="10" size="864" />
			<output>
				<port id="0" precision="I8">
					<dim>32</dim>
					<dim>3</dim>
					<dim>3</dim>
					<dim>3</dim>
				</port>
			</output>
		</layer>
		<layer id="13" name="Convert_546681" type="Convert" version="opset1">
			<data destination_type="f32" />
			<input>
				<port id="0" precision="I8">
					<dim>32</dim>
					<dim>3</dim>
					<dim>3</dim>
					<dim>3</dim>
				</port>
			</input>
			<output>
				<port id="1" precision="FP32">
					<dim>32</dim>
					<dim>3</dim>
					<dim>3</dim>
					<dim>3</dim>
				</port>
			</output>
		</layer>
		<layer id="14" name="Constant_546579_compressed" type="Const" version="opset1">
			<data element_type="f16" shape="32, 1, 1, 1" offset="874" size="64" />
			<output>
				<port id="0" precision="FP16">
					<dim>32</dim>
					<dim>1</dim>
					<dim>1</dim>
					<dim>1</dim>
				</port>
			</output>
		</layer>
		<layer id="15" name="Constant_546579" type="Convert" version="opset1">
			<data destination_type="f32" />
			<rt_info>
				<attribute name="decompression" version="0" />
			</rt_info>
			<input>
				<port id="0" precision="FP16">
					<dim>32</dim>
					<dim>1</dim>
					<dim>1</dim>
					<dim>1</dim>
				</port>
			</input>
			<output>
				<port id="1" precision="FP32">
					<dim>32</dim>
					<dim>1</dim>
					<dim>1</dim>
					<dim>1</dim>
				</port>
			</output>
		</layer>
		<layer id="16" name="/model.0/conv/Conv/WithoutBiases/fq_weights_1" type="Multiply" version="opset1">
			<data auto_broadcast="numpy" />
			<input>
				<port id="0" precision="FP32">
					<dim>32</dim>
					<dim>3</dim>
					<dim>3</dim>
					<dim>3</dim>
				</port>
				<port id="1" precision="FP32">
					<dim>32</dim>
					<dim>1</dim>
					<dim>1</dim>
					<dim>1</dim>
				</port>
			</input>
			<output>
				<port id="2" precision="FP32">
					<dim>32</dim>
					<dim>3</dim>
					<dim>3</dim>
					<dim>3</dim>
				</port>
			</output>
		</layer>
		<layer id="17" name="/model.0/conv/Conv/WithoutBiases" type="Convolution" version="opset1">
			<data strides="2, 2" dilations="1, 1" pads_begin="1, 1" pads_end="1, 1" auto_pad="explicit" />
			<input>
				<port id="0" precision="FP32">
					<dim>-1</dim>
					<dim>3</dim>
					<dim>-1</dim>
					<dim>-1</dim>
				</port>
				<port id="1" precision="FP32">
					<dim>32</dim>
					<dim>3</dim>
					<dim>3</dim>
					<dim>3</dim>
				</port>
			</input>
			<output>
				<port id="2" precision="FP32">
					<dim>-1</dim>
					<dim>32</dim>
					<dim>-1</dim>
					<dim>-1</dim>
				</port>
			</output>
		</layer>
		<layer id="18" name="Reshape_140_compressed" type="Const" version="opset1">
			<data element_type="f16" shape="1, 32, 1, 1" offset="938" size="64" />
			<output>
				<port id="0" precision="FP16">
					<dim>1</dim>
					<dim>32</dim>
					<dim>1</dim>
					<dim>1</dim>
				</port>
			</output>
		</layer>
		<layer id="19" name="Reshape_140" type="Convert" version="opset1">
			<data destination_type="f32" />
			<rt_info>
				<attribute name="decompression" version="0" />
			</rt_info>
			<input>
				<port id="0" precision="FP16">
					<dim>1</dim>
					<dim>32</dim>
					<dim>1</dim>
					<dim>1</dim>
				</port>
			</input>
			<output>
				<port id="1" precision="FP32">
					<dim>1</dim>
					<dim>32</dim>
					<dim>1</dim>
					<dim>1</dim>
				</port>
			</output>
		</layer>
		<layer id="20" name="/model.0/conv/Conv" type="Add" version="opset1">
			<data auto_broadcast="numpy" />
			<input>
				<port id="0" precision="FP32">
					<dim>-1</dim>
					<dim>32</dim>
					<dim>-1</dim>
					<dim>-1</dim>
				</port>
				<port id="1" precision="FP32">
					<dim>1</dim>
					<dim>32</dim>
					<dim>1</dim>
					<dim>1</dim>
				</port>
			</input>
			<output>
				<port id="2" precision="FP32" names="/model.0/conv/Conv_output_0">
					<dim>-1</dim>
					<dim>32</dim>
					<dim>-1</dim>
					<dim>-1</dim>
				</port>
			</output>
		</layer>
		<layer id="21" name="/model.0/act/Mul" type="Swish" version="opset4">
			<input>
				<port id="0" precision="FP32">
					<dim>-1</dim>
					<dim>32</dim>
					<dim>-1</dim>
					<dim>-1</dim>
				</port>
			</input>
			<output>
				<port id="1" precision="FP32" names="/model.0/act/Mul_output_0">
					<dim>-1</dim>
					<dim>32</dim>
					<dim>-1</dim>
					<dim>-1</dim>
				</port>
			</output>
		</layer>
		<layer id="22" name="Constant_316533_compressed" type="Const" version="opset1">
			<data element_type="f16" shape="" offset="1002" size="2" />
			<output>
				<port id="0" precision="FP16" />
			</output>
		</layer>
		<layer id="23" name="Constant_316533" type="Convert" version="opset1">
			<data destination_type="f32" />
			<rt_info>
				<attribute name="decompression" version="0" />
			</rt_info>
			<input>
				<port id="0" precision="FP16" />
			</input>
			<output>
				<port id="1" precision="FP32" />
			</output>
		</layer>
		<layer id="24" name="Constant_316534_compressed" type="Const" version="opset1">
			<data element_type="f16" shape="" offset="1004" size="2" />
			<output>
				<port id="0" precision="FP16" />
			</output>
		</layer>
		<layer id="25" name="Constant_316534" type="Convert" version="opset1">
			<data destination_type="f32" />
			<rt_info>
				<attribute name="decompression" version="0" />
			</rt_info>
			<input>
				<port id="0" precision="FP16" />
			</input>
			<output>
				<port id="1" precision="FP32" />
			</output>
		</layer>
		<layer id="26" name="Constant_316535_compressed" type="Const" version="opset1">
			<data element_type="f16" shape="" offset="1006" size="2" />
			<output>
				<port id="0" precision="FP16" />
			</output>
		</layer>
		<layer id="27" name="Constant_316535" type="Convert" version="opset1">
			<data destination_type="f32" />
			<rt_info>
				<attribute name="decompression" version="0" />
			</rt_info>
			<input>
				<port id="0" precision="FP16" />
			</input>
			<output>
				<port id="1" precision="FP32" />
			</output>
		</layer>
		<layer id="28" name="Constant_316536_compressed" type="Const" version="opset1">
			<data element_type="f16" shape="" offset="1008" size="2" />
			<output>
				<port id="0" precision="FP16" />
			</output>
		</layer>
		<layer id="29" name="Constant_316536" type="Convert" version="opset1">
			<data destination_type="f32" />
			<rt_info>
				<attribute name="decompression" version="0" />
			</rt_info>
			<input>
				<port id="0" precision="FP16" />
			</input>
			<output>
				<port id="1" precision="FP32" />
			</output>
		</layer>
		<layer id="30" name="/model.0/act/Mul/fq_output_0" type="FakeQuantize" version="opset1">
			<data levels="256" auto_broadcast="numpy" />
			<input>
				<port id="0" precision="FP32">
					<dim>-1</dim>
					<dim>32</dim>
					<dim>-1</dim>
					<dim>-1</dim>
				</port>
				<port id="1" precision="FP32" />
				<port id="2" precision="FP32" />
				<port id="3" precision="FP32" />
				<port id="4" precision="FP32" />
			</input>
			<output>
				<port id="5" precision="FP32">
					<dim>-1</dim>
					<dim>32</dim>
					<dim>-1</dim>
					<dim>-1</dim>
				</port>
			</output>
		</layer>
		<layer id="31" name="model.1.conv.weight" type="Const" version="opset1">
			<data element_type="i8" shape="64, 32, 3, 3" offset="1010" size="18432" />
			<output>
				<port id="0" precision="I8">
					<dim>64</dim>
					<dim>32</dim>
					<dim>3</dim>
					<dim>3</dim>
				</port>
			</output>
		</layer>
		<layer id="32" name="Convert_546835" type="Convert" version="opset1">
			<data destination_type="f32" />
			<input>
				<port id="0" precision="I8">
					<dim>64</dim>
					<dim>32</dim>
					<dim>3</dim>
					<dim>3</dim>
				</port>
			</input>
			<output>
				<port id="1" precision="FP32">
					<dim>64</dim>
					<dim>32</dim>
					<dim>3</dim>
					<dim>3</dim>
				</port>
			</output>
		</layer>
		<layer id="33" name="Constant_546733_compressed" type="Const" version="opset1">
			<data element_type="f16" shape="64, 1, 1, 1" offset="19442" size="128" />
			<output>
				<port id="0" precision="FP16">
					<dim>64</dim>
					<dim>1</dim>
					<dim>1</dim>
					<dim>1</dim>
				</port>
			</output>
		</layer>
		<layer id="34" name="Constant_546733" type="Convert" version="opset1">
			<data destination_type="f32" />
			<rt_info>
				<attribute name="decompression" version="0" />
			</rt_info>
			<input>
				<port id="0" precision="FP16">
					<dim>64</dim>
					<dim>1</dim>
					<dim>1</dim>
					<dim>1</dim>
				</port>
			</input>
			<output>
				<port id="1" precision="FP32">
					<dim>64</dim>
					<dim>1</dim>
					<dim>1</dim>
					<dim>1</dim>
				</port>
			</output>
		</layer>
		<layer id="35" name="/model.1/conv/Conv/WithoutBiases/fq_weights_1" type="Multiply" version="opset1">
			<data auto_broadcast="numpy" />
			<input>
				<port id="0" precision="FP32">
					<dim>64</dim>
					<dim>32</dim>
					<dim>3</dim>
					<dim>3</dim>
				</port>
				<port id="1" precision="FP32">
					<dim>64</dim>
					<dim>1</dim>
					<dim>1</dim>
					<dim>1</dim>
				</port>
			</input>
			<output>
				<port id="2" precision="FP32">
					<dim>64</dim>
					<dim>32</dim>
					<dim>3</dim>
					<dim>3</dim>
				</port>
			</output>
		</layer>
		<layer id="36" name="/model.1/conv/Conv/WithoutBiases" type="Convolution" version="opset1">
			<data strides="2, 2" dilations="1, 1" pads_begin="1, 1" pads_end="1, 1" auto_pad="explicit" />
			<input>
				<port id="0" precision="FP32">
					<dim>-1</dim>
					<dim>32</dim>
					<dim>-1</dim>
					<dim>-1</dim>
				</port>
				<port id="1" precision="FP32">
					<dim>64</dim>
					<dim>32</dim>
					<dim>3</dim>
					<dim>3</dim>
				</port>
			</input>
			<output>
				<port id="2" precision="FP32">
					<dim>-1</dim>
					<dim>64</dim>
					<dim>-1</dim>
					<dim>-1</dim>
				</port>
			</output>
		</layer>
		<layer id="37" name="Reshape_157_compressed" type="Const" version="opset1">
			<data element_type="f16" shape="1, 64, 1, 1" offset="19570" size="128" />
			<output>
				<port id="0" precision="FP16">
					<dim>1</dim>
					<dim>64</dim>
					<dim>1</dim>
					<dim>1</dim>
				</port>
			</output>
		</layer>
		<layer id="38" name="Reshape_157" type="Convert" version="opset1">
			<data destination_type="f32" />
			<rt_info>
				<attribute name="decompression" version="0" />
			</rt_info>
			<input>
				<port id="0" precision="FP16">
					<dim>1</dim>
					<dim>64</dim>
					<dim>1</dim>
					<dim>1</dim>
				</port>
			</input>
			<output>
				<port id="1" precision="FP32">
					<dim>1</dim>
					<dim>64</dim>
					<dim>1</dim>
					<dim>1</dim>
				</port>
			</output>
		</layer>
		<layer id="39" name="/model.1/conv/Conv" type="Add" version="opset1">
			<data auto_broadcast="numpy" />
			<input>
				<port id="0" precision="FP32">
					<dim>-1</dim>
					<dim>64</dim>
					<dim>-1</dim>
					<dim>-1</dim>
				</port>
				<port id="1" precision="FP32">
					<dim>1</dim>
					<dim>64</dim>
					<dim>1</dim>
					<dim>1</dim>
				</port>
			</input>
			<output>
				<port id="2" precision="FP32" names="/model.1/conv/Conv_output_0">
					<dim>-1</dim>
					<dim>64</dim>
					<dim>-1</dim>
					<dim>-1</dim>
				</port>
			</output>
		</layer>
		<layer id="40" name="/model.1/act/Mul" type="Swish" version="opset4">
			<input>
				<port id="0" precision="FP32">
					<dim>-1</dim>
					<dim>64</dim>
					<dim>-1</dim>
					<dim>-1</dim>
				</port>
			</input>
			<output>
				<port id="1" precision="FP32" names="/model.1/act/Mul_output_0">
					<dim>-1</dim>
					<dim>64</dim>
					<dim>-1</dim>
					<dim>-1</dim>
				</port>
			</output>
		</layer>
		<layer id="41" name="Constant_316543_compressed" type="Const" version="opset1">
			<data element_type="f16" shape="" offset="19698" size="2" />
			<output>
				<port id="0" precision="FP16" />
			</output>
		</layer>
		<layer id="42" name="Constant_316543" type="Convert" version="opset1">
			<data destination_type="f32" />
			<rt_info>
				<attribute name="decompression" version="0" />
			</rt_info>
			<input>
				<port id="0" precision="FP16" />
			</input>
			<output>
				<port id="1" precision="FP32" />
			</output>
		</layer>
		<layer id="43" name="Constant_316544_compressed" type="Const" version="opset1">
			<data element_type="f16" shape="" offset="19700" size="2" />
			<output>
				<port id="0" precision="FP16" />
			</output>
		</layer>
		<layer id="44" name="Constant_316544" type="Convert" version="opset1">
			<data destination_type="f32" />
			<rt_info>
				<attribute name="decompression" version="0" />
			</rt_info>
			<input>
				<port id="0" precision="FP16" />
			</input>
			<output>
				<port id="1" precision="FP32" />
			</output>
		</layer>
		<layer id="45" name="Constant_316545_compressed" type="Const" version="opset1">
			<data element_type="f16" shape="" offset="19702" size="2" />
			<output>
				<port id="0" precision="FP16" />
			</output>
		</layer>
		<layer id="46" name="Constant_316545" type="Convert" version="opset1">
			<data destination_type="f32" />
			<rt_info>
				<attribute name="decompression" version="0" />
			</rt_info>
			<input>
				<port id="0" precision="FP16" />
			</input>
			<output>
				<port id="1" precision="FP32" />
			</output>
		</layer>
		<layer id="47" name="Constant_316546_compressed" type="Const" version="opset1">
			<data element_type="f16" shape="" offset="19704" size="2" />
			<output>
				<port id="0" precision="FP16" />
			</output>
		</layer>
		<layer id="48" name="Constant_316546" type="Convert" version="opset1">
			<data destination_type="f32" />
			<rt_info>
				<attribute name="decompression" version="0" />
			</rt_info>
			<input>
				<port id="0" precision="FP16" />
			</input>
			<output>
				<port id="1" precision="FP32" />
			</output>
		</layer>
		<layer id="49" name="/model.1/act/Mul/fq_output_0" type="FakeQuantize" version="opset1">
			<data levels="256" auto_broadcast="numpy" />
			<input>
				<port id="0" precision="FP32">
					<dim>-1</dim>
					<dim>64</dim>
					<dim>-1</dim>
					<dim>-1</dim>
				</port>
				<port id="1" precision="FP32" />
				<port id="2" precision="FP32" />
				<port id="3" precision="FP32" />
				<port id="4" precision="FP32" />
			</input>
			<output>
				<port id="5" precision="FP32">
					<dim>-1</dim>
					<dim>64</dim>
					<dim>-1</dim>
					<dim>-1</dim>
				</port>
			</output>
		</layer>
		<layer id="50" name="model.2.cv1.conv.weight" type="Const" version="opset1">
			<data element_type="i8" shape="64, 64, 1, 1" offset="19706" size="4096" />
			<output>
				<port id="0" precision="I8">
					<dim>64</dim>
					<dim>64</dim>
					<dim>1</dim>
					<dim>1</dim>
				</port>
			</output>
		</layer>
		<layer id="51" name="Convert_546989" type="Convert" version="opset1">
			<data destination_type="f32" />
			<input>
				<port id="0" precision="I8">
					<dim>64</dim>
					<dim>64</dim>
					<dim>1</dim>
					<dim>1</dim>
				</port>
			</input>
			<output>
				<port id="1" precision="FP32">
					<dim>64</dim>
					<dim>64</dim>
					<dim>1</dim>
					<dim>1</dim>
				</port>
			</output>
		</layer>
		<layer id="52" name="Constant_546887_compressed" type="Const" version="opset1">
			<data element_type="f16" shape="64, 1, 1, 1" offset="23802" size="128" />
			<output>
				<port id="0" precision="FP16">
					<dim>64</dim>
					<dim>1</dim>
					<dim>1</dim>
					<dim>1</dim>
				</port>
			</output>
		</layer>
		<layer id="53" name="Constant_546887" type="Convert" version="opset1">
			<data destination_type="f32" />
			<rt_info>
				<attribute name="decompression" version="0" />
			</rt_info>
			<input>
				<port id="0" precision="FP16">
					<dim>64</dim>
					<dim>1</dim>
					<dim>1</dim>
					<dim>1</dim>
				</port>
			</input>
			<output>
				<port id="1" precision="FP32">
					<dim>64</dim>
					<dim>1</dim>
					<dim>1</dim>
					<dim>1</dim>
				</port>
			</output>
		</layer>
		<layer id="54" name="/model.2/cv1/conv/Conv/WithoutBiases/fq_weights_1" type="Multiply" version="opset1">
			<data auto_broadcast="numpy" />
			<input>
				<port id="0" precision="FP32">
					<dim>64</dim>
					<dim>64</dim>
					<dim>1</dim>
					<dim>1</dim>
				</port>
				<port id="1" precision="FP32">
					<dim>64</dim>
					<dim>1</dim>
					<dim>1</dim>
					<dim>1</dim>
				</port>
			</input>
			<output>
				<port id="2" precision="FP32">
					<dim>64</dim>
					<dim>64</dim>
					<dim>1</dim>
					<dim>1</dim>
				</port>
			</output>
		</layer>
		<layer id="55" name="/model.2/cv1/conv/Conv/WithoutBiases" type="Convolution" version="opset1">
			<data strides="1, 1" dilations="1, 1" pads_begin="0, 0" pads_end="0, 0" auto_pad="explicit" />
			<input>
				<port id="0" precision="FP32">
					<dim>-1</dim>
					<dim>64</dim>
					<dim>-1</dim>
					<dim>-1</dim>
				</port>
				<port id="1" precision="FP32">
					<dim>64</dim>
					<dim>64</dim>
					<dim>1</dim>
					<dim>1</dim>
				</port>
			</input>
			<output>
				<port id="2" precision="FP32">
					<dim>-1</dim>
					<dim>64</dim>
					<dim>-1</dim>
					<dim>-1</dim>
				</port>
			</output>
		</layer>
		<layer id="56" name="Reshape_174_compressed" type="Const" version="opset1">
			<data element_type="f16" shape="1, 64, 1, 1" offset="23930" size="128" />
			<output>
				<port id="0" precision="FP16">
					<dim>1</dim>
					<dim>64</dim>
					<dim>1</dim>
					<dim>1</dim>
				</port>
			</output>
		</layer>
		<layer id="57" name="Reshape_174" type="Convert" version="opset1">
			<data destination_type="f32" />
			<rt_info>
				<attribute name="decompression" version="0" />
			</rt_info>
			<input>
				<port id="0" precision="FP16">
					<dim>1</dim>
					<dim>64</dim>
					<dim>1</dim>
					<dim>1</dim>
				</port>
			</input>
			<output>
				<port id="1" precision="FP32">
					<dim>1</dim>
					<dim>64</dim>
					<dim>1</dim>
					<dim>1</dim>
				</port>
			</output>
		</layer>
		<layer id="58" name="/model.2/cv1/conv/Conv" type="Add" version="opset1">
			<data auto_broadcast="numpy" />
			<input>
				<port id="0" precision="FP32">
					<dim>-1</dim>
					<dim>64</dim>
					<dim>-1</dim>
					<dim>-1</dim>
				</port>
				<port id="1" precision="FP32">
					<dim>1</dim>
					<dim>64</dim>
					<dim>1</dim>
					<dim>1</dim>
				</port>
			</input>
			<output>
				<port id="2" precision="FP32" names="/model.2/cv1/conv/Conv_output_0">
					<dim>-1</dim>
					<dim>64</dim>
					<dim>-1</dim>
					<dim>-1</dim>
				</port>
			</output>
		</layer>
		<layer id="59" name="/model.2/cv1/act/Mul" type="Swish" version="opset4">
			<input>
				<port id="0" precision="FP32">
					<dim>-1</dim>
					<dim>64</dim>
					<dim>-1</dim>
					<dim>-1</dim>
				</port>
			</input>
			<output>
				<port id="1" precision="FP32" names="/model.2/cv1/act/Mul_output_0">
					<dim>-1</dim>
					<dim>64</dim>
					<dim>-1</dim>
					<dim>-1</dim>
				</port>
			</output>
		</layer>
		<layer id="60" name="Constant_316393_compressed" type="Const" version="opset1">
			<data element_type="f16" shape="" offset="24058" size="2" />
			<output>
				<port id="0" precision="FP16" />
			</output>
		</layer>
		<layer id="61" name="Constant_316393" type="Convert" version="opset1">
			<data destination_type="f32" />
			<rt_info>
				<attribute name="decompression" version="0" />
			</rt_info>
			<input>
				<port id="0" precision="FP16" />
			</input>
			<output>
				<port id="1" precision="FP32" />
			</output>
		</layer>
		<layer id="62" name="Constant_316394_compressed" type="Const" version="opset1">
			<data element_type="f16" shape="" offset="24060" size="2" />
			<output>
				<port id="0" precision="FP16" />
			</output>
		</layer>
		<layer id="63" name="Constant_316394" type="Convert" version="opset1">
			<data destination_type="f32" />
			<rt_info>
				<attribute name="decompression" version="0" />
			</rt_info>
			<input>
				<port id="0" precision="FP16" />
			</input>
			<output>
				<port id="1" precision="FP32" />
			</output>
		</layer>
		<layer id="64" name="Constant_316395_compressed" type="Const" version="opset1">
			<data element_type="f16" shape="" offset="24062" size="2" />
			<output>
				<port id="0" precision="FP16" />
			</output>
		</layer>
		<layer id="65" name="Constant_316395" type="Convert" version="opset1">
			<data destination_type="f32" />
			<rt_info>
				<attribute name="decompression" version="0" />
			</rt_info>
			<input>
				<port id="0" precision="FP16" />
			</input>
			<output>
				<port id="1" precision="FP32" />
			</output>
		</layer>
		<layer id="66" name="Constant_316396_compressed" type="Const" version="opset1">
			<data element_type="f16" shape="" offset="24064" size="2" />
			<output>
				<port id="0" precision="FP16" />
			</output>
		</layer>
		<layer id="67" name="Constant_316396" type="Convert" version="opset1">
			<data destination_type="f32" />
			<rt_info>
				<attribute name="decompression" version="0" />
			</rt_info>
			<input>
				<port id="0" precision="FP16" />
			</input>
			<output>
				<port id="1" precision="FP32" />
			</output>
		</layer>
		<layer id="68" name="/model.2/cv1/act/Mul/fq_output_0" type="FakeQuantize" version="opset1">
			<data levels="256" auto_broadcast="numpy" />
			<input>
				<port id="0" precision="FP32">
					<dim>-1</dim>
					<dim>64</dim>
					<dim>-1</dim>
					<dim>-1</dim>
				</port>
				<port id="1" precision="FP32" />
				<port id="2" precision="FP32" />
				<port id="3" precision="FP32" />
				<port id="4" precision="FP32" />
			</input>
			<output>
				<port id="5" precision="FP32">
					<dim>-1</dim>
					<dim>64</dim>
					<dim>-1</dim>
					<dim>-1</dim>
				</port>
			</output>
		</layer>
		<layer id="69" name="Constant_181" type="Const" version="opset1">
			<data element_type="i64" shape="" offset="24066" size="8" />
			<output>
				<port id="0" precision="I64" />
			</output>
		</layer>
		<layer id="70" name="Constant_9" type="Const" version="opset1">
			<data element_type="i64" shape="2" offset="24074" size="16" />
			<output>
				<port id="0" precision="I64" names="onnx::Split_138">
					<dim>2</dim>
				</port>
			</output>
		</layer>
		<layer id="71" name="/model.2/Split" type="VariadicSplit" version="opset1">
			<input>
				<port id="0" precision="FP32">
					<dim>-1</dim>
					<dim>64</dim>
					<dim>-1</dim>
					<dim>-1</dim>
				</port>
				<port id="1" precision="I64" />
				<port id="2" precision="I64">
					<dim>2</dim>
				</port>
			</input>
			<output>
				<port id="3" precision="FP32" names="/model.2/Split_output_0">
					<dim>-1</dim>
					<dim>32</dim>
					<dim>-1</dim>
					<dim>-1</dim>
				</port>
				<port id="4" precision="FP32" names="/model.2/Split_output_1">
					<dim>-1</dim>
					<dim>32</dim>
					<dim>-1</dim>
					<dim>-1</dim>
				</port>
			</output>
		</layer>
		<layer id="72" name="model.2.m.0.cv1.conv.weight" type="Const" version="opset1">
			<data element_type="i8" shape="32, 32, 3, 3" offset="24090" size="9216" />
			<output>
				<port id="0" precision="I8">
					<dim>32</dim>
					<dim>32</dim>
					<dim>3</dim>
					<dim>3</dim>
				</port>
			</output>
		</layer>
		<layer id="73" name="Convert_547143" type="Convert" version="opset1">
			<data destination_type="f32" />
			<input>
				<port id="0" precision="I8">
					<dim>32</dim>
					<dim>32</dim>
					<dim>3</dim>
					<dim>3</dim>
				</port>
			</input>
			<output>
				<port id="1" precision="FP32">
					<dim>32</dim>
					<dim>32</dim>
					<dim>3</dim>
					<dim>3</dim>
				</port>
			</output>
		</layer>
		<layer id="74" name="Constant_547041_compressed" type="Const" version="opset1">
			<data element_type="f16" shape="32, 1, 1, 1" offset="33306" size="64" />
			<output>
				<port id="0" precision="FP16">
					<dim>32</dim>
					<dim>1</dim>
					<dim>1</dim>
					<dim>1</dim>
				</port>
			</output>
		</layer>
		<layer id="75" name="Constant_547041" type="Convert" version="opset1">
			<data destination_type="f32" />
			<rt_info>
				<attribute name="decompression" version="0" />
			</rt_info>
			<input>
				<port id="0" precision="FP16">
					<dim>32</dim>
					<dim>1</dim>
					<dim>1</dim>
					<dim>1</dim>
				</port>
			</input>
			<output>
				<port id="1" precision="FP32">
					<dim>32</dim>
					<dim>1</dim>
					<dim>1</dim>
					<dim>1</dim>
				</port>
			</output>
		</layer>
		<layer id="76" name="/model.2/m.0/cv1/conv/Conv/WithoutBiases/fq_weights_1" type="Multiply" version="opset1">
			<data auto_broadcast="numpy" />
			<input>
				<port id="0" precision="FP32">
					<dim>32</dim>
					<dim>32</dim>
					<dim>3</dim>
					<dim>3</dim>
				</port>
				<port id="1" precision="FP32">
					<dim>32</dim>
					<dim>1</dim>
					<dim>1</dim>
					<dim>1</dim>
				</port>
			</input>
			<output>
				<port id="2" precision="FP32">
					<dim>32</dim>
					<dim>32</dim>
					<dim>3</dim>
					<dim>3</dim>
				</port>
			</output>
		</layer>
		<layer id="77" name="/model.2/m.0/cv1/conv/Conv/WithoutBiases" type="Convolution" version="opset1">
			<data strides="1, 1" dilations="1, 1" pads_begin="1, 1" pads_end="1, 1" auto_pad="explicit" />
			<input>
				<port id="0" precision="FP32">
					<dim>-1</dim>
					<dim>32</dim>
					<dim>-1</dim>
					<dim>-1</dim>
				</port>
				<port id="1" precision="FP32">
					<dim>32</dim>
					<dim>32</dim>
					<dim>3</dim>
					<dim>3</dim>
				</port>
			</input>
			<output>
				<port id="2" precision="FP32">
					<dim>-1</dim>
					<dim>32</dim>
					<dim>-1</dim>
					<dim>-1</dim>
				</port>
			</output>
		</layer>
		<layer id="78" name="Reshape_194_compressed" type="Const" version="opset1">
			<data element_type="f16" shape="1, 32, 1, 1" offset="33370" size="64" />
			<output>
				<port id="0" precision="FP16">
					<dim>1</dim>
					<dim>32</dim>
					<dim>1</dim>
					<dim>1</dim>
				</port>
			</output>
		</layer>
		<layer id="79" name="Reshape_194" type="Convert" version="opset1">
			<data destination_type="f32" />
			<rt_info>
				<attribute name="decompression" version="0" />
			</rt_info>
			<input>
				<port id="0" precision="FP16">
					<dim>1</dim>
					<dim>32</dim>
					<dim>1</dim>
					<dim>1</dim>
				</port>
			</input>
			<output>
				<port id="1" precision="FP32">
					<dim>1</dim>
					<dim>32</dim>
					<dim>1</dim>
					<dim>1</dim>
				</port>
			</output>
		</layer>
		<layer id="80" name="/model.2/m.0/cv1/conv/Conv" type="Add" version="opset1">
			<data auto_broadcast="numpy" />
			<input>
				<port id="0" precision="FP32">
					<dim>-1</dim>
					<dim>32</dim>
					<dim>-1</dim>
					<dim>-1</dim>
				</port>
				<port id="1" precision="FP32">
					<dim>1</dim>
					<dim>32</dim>
					<dim>1</dim>
					<dim>1</dim>
				</port>
			</input>
			<output>
				<port id="2" precision="FP32" names="/model.2/m.0/cv1/conv/Conv_output_0">
					<dim>-1</dim>
					<dim>32</dim>
					<dim>-1</dim>
					<dim>-1</dim>
				</port>
			</output>
		</layer>
		<layer id="81" name="/model.2/m.0/cv1/act/Mul" type="Swish" version="opset4">
			<input>
				<port id="0" precision="FP32">
					<dim>-1</dim>
					<dim>32</dim>
					<dim>-1</dim>
					<dim>-1</dim>
				</port>
			</input>
			<output>
				<port id="1" precision="FP32" names="/model.2/m.0/cv1/act/Mul_output_0">
					<dim>-1</dim>
					<dim>32</dim>
					<dim>-1</dim>
					<dim>-1</dim>
				</port>
			</output>
		</layer>
		<layer id="82" name="Constant_316558_compressed" type="Const" version="opset1">
			<data element_type="f16" shape="" offset="33434" size="2" />
			<output>
				<port id="0" precision="FP16" />
			</output>
		</layer>
		<layer id="83" name="Constant_316558" type="Convert" version="opset1">
			<data destination_type="f32" />
			<rt_info>
				<attribute name="decompression" version="0" />
			</rt_info>
			<input>
				<port id="0" precision="FP16" />
			</input>
			<output>
				<port id="1" precision="FP32" />
			</output>
		</layer>
		<layer id="84" name="Constant_316559_compressed" type="Const" version="opset1">
			<data element_type="f16" shape="" offset="33436" size="2" />
			<output>
				<port id="0" precision="FP16" />
			</output>
		</layer>
		<layer id="85" name="Constant_316559" type="Convert" version="opset1">
			<data destination_type="f32" />
			<rt_info>
				<attribute name="decompression" version="0" />
			</rt_info>
			<input>
				<port id="0" precision="FP16" />
			</input>
			<output>
				<port id="1" precision="FP32" />
			</output>
		</layer>
		<layer id="86" name="Constant_316560_compressed" type="Const" version="opset1">
			<data element_type="f16" shape="" offset="33438" size="2" />
			<output>
				<port id="0" precision="FP16" />
			</output>
		</layer>
		<layer id="87" name="Constant_316560" type="Convert" version="opset1">
			<data destination_type="f32" />
			<rt_info>
				<attribute name="decompression" version="0" />
			</rt_info>
			<input>
				<port id="0" precision="FP16" />
			</input>
			<output>
				<port id="1" precision="FP32" />
			</output>
		</layer>
		<layer id="88" name="Constant_316561_compressed" type="Const" version="opset1">
			<data element_type="f16" shape="" offset="33440" size="2" />
			<output>
				<port id="0" precision="FP16" />
			</output>
		</layer>
		<layer id="89" name="Constant_316561" type="Convert" version="opset1">
			<data destination_type="f32" />
			<rt_info>
				<attribute name="decompression" version="0" />
			</rt_info>
			<input>
				<port id="0" precision="FP16" />
			</input>
			<output>
				<port id="1" precision="FP32" />
			</output>
		</layer>
		<layer id="90" name="/model.2/m.0/cv1/act/Mul/fq_output_0" type="FakeQuantize" version="opset1">
			<data levels="256" auto_broadcast="numpy" />
			<input>
				<port id="0" precision="FP32">
					<dim>-1</dim>
					<dim>32</dim>
					<dim>-1</dim>
					<dim>-1</dim>
				</port>
				<port id="1" precision="FP32" />
				<port id="2" precision="FP32" />
				<port id="3" precision="FP32" />
				<port id="4" precision="FP32" />
			</input>
			<output>
				<port id="5" precision="FP32">
					<dim>-1</dim>
					<dim>32</dim>
					<dim>-1</dim>
					<dim>-1</dim>
				</port>
			</output>
		</layer>
		<layer id="91" name="model.2.m.0.cv2.conv.weight" type="Const" version="opset1">
			<data element_type="i8" shape="32, 32, 3, 3" offset="33442" size="9216" />
			<output>
				<port id="0" precision="I8">
					<dim>32</dim>
					<dim>32</dim>
					<dim>3</dim>
					<dim>3</dim>
				</port>
			</output>
		</layer>
		<layer id="92" name="Convert_547297" type="Convert" version="opset1">
			<data destination_type="f32" />
			<input>
				<port id="0" precision="I8">
					<dim>32</dim>
					<dim>32</dim>
					<dim>3</dim>
					<dim>3</dim>
				</port>
			</input>
			<output>
				<port id="1" precision="FP32">
					<dim>32</dim>
					<dim>32</dim>
					<dim>3</dim>
					<dim>3</dim>
				</port>
			</output>
		</layer>
		<layer id="93" name="Constant_547195_compressed" type="Const" version="opset1">
			<data element_type="f16" shape="32, 1, 1, 1" offset="42658" size="64" />
			<output>
				<port id="0" precision="FP16">
					<dim>32</dim>
					<dim>1</dim>
					<dim>1</dim>
					<dim>1</dim>
				</port>
			</output>
		</layer>
		<layer id="94" name="Constant_547195" type="Convert" version="opset1">
			<data destination_type="f32" />
			<rt_info>
				<attribute name="decompression" version="0" />
			</rt_info>
			<input>
				<port id="0" precision="FP16">
					<dim>32</dim>
					<dim>1</dim>
					<dim>1</dim>
					<dim>1</dim>
				</port>
			</input>
			<output>
				<port id="1" precision="FP32">
					<dim>32</dim>
					<dim>1</dim>
					<dim>1</dim>
					<dim>1</dim>
				</port>
			</output>
		</layer>
		<layer id="95" name="/model.2/m.0/cv2/conv/Conv/WithoutBiases/fq_weights_1" type="Multiply" version="opset1">
			<data auto_broadcast="numpy" />
			<input>
				<port id="0" precision="FP32">
					<dim>32</dim>
					<dim>32</dim>
					<dim>3</dim>
					<dim>3</dim>
				</port>
				<port id="1" precision="FP32">
					<dim>32</dim>
					<dim>1</dim>
					<dim>1</dim>
					<dim>1</dim>
				</port>
			</input>
			<output>
				<port id="2" precision="FP32">
					<dim>32</dim>
					<dim>32</dim>
					<dim>3</dim>
					<dim>3</dim>
				</port>
			</output>
		</layer>
		<layer id="96" name="/model.2/m.0/cv2/conv/Conv/WithoutBiases" type="Convolution" version="opset1">
			<data strides="1, 1" dilations="1, 1" pads_begin="1, 1" pads_end="1, 1" auto_pad="explicit" />
			<input>
				<port id="0" precision="FP32">
					<dim>-1</dim>
					<dim>32</dim>
					<dim>-1</dim>
					<dim>-1</dim>
				</port>
				<port id="1" precision="FP32">
					<dim>32</dim>
					<dim>32</dim>
					<dim>3</dim>
					<dim>3</dim>
				</port>
			</input>
			<output>
				<port id="2" precision="FP32">
					<dim>-1</dim>
					<dim>32</dim>
					<dim>-1</dim>
					<dim>-1</dim>
				</port>
			</output>
		</layer>
		<layer id="97" name="Reshape_211_compressed" type="Const" version="opset1">
			<data element_type="f16" shape="1, 32, 1, 1" offset="42722" size="64" />
			<output>
				<port id="0" precision="FP16">
					<dim>1</dim>
					<dim>32</dim>
					<dim>1</dim>
					<dim>1</dim>
				</port>
			</output>
		</layer>
		<layer id="98" name="Reshape_211" type="Convert" version="opset1">
			<data destination_type="f32" />
			<rt_info>
				<attribute name="decompression" version="0" />
			</rt_info>
			<input>
				<port id="0" precision="FP16">
					<dim>1</dim>
					<dim>32</dim>
					<dim>1</dim>
					<dim>1</dim>
				</port>
			</input>
			<output>
				<port id="1" precision="FP32">
					<dim>1</dim>
					<dim>32</dim>
					<dim>1</dim>
					<dim>1</dim>
				</port>
			</output>
		</layer>
		<layer id="99" name="/model.2/m.0/cv2/conv/Conv" type="Add" version="opset1">
			<data auto_broadcast="numpy" />
			<input>
				<port id="0" precision="FP32">
					<dim>-1</dim>
					<dim>32</dim>
					<dim>-1</dim>
					<dim>-1</dim>
				</port>
				<port id="1" precision="FP32">
					<dim>1</dim>
					<dim>32</dim>
					<dim>1</dim>
					<dim>1</dim>
				</port>
			</input>
			<output>
				<port id="2" precision="FP32" names="/model.2/m.0/cv2/conv/Conv_output_0">
					<dim>-1</dim>
					<dim>32</dim>
					<dim>-1</dim>
					<dim>-1</dim>
				</port>
			</output>
		</layer>
		<layer id="100" name="/model.2/m.0/cv2/act/Mul" type="Swish" version="opset4">
			<input>
				<port id="0" precision="FP32">
					<dim>-1</dim>
					<dim>32</dim>
					<dim>-1</dim>
					<dim>-1</dim>
				</port>
			</input>
			<output>
				<port id="1" precision="FP32" names="/model.2/m.0/cv2/act/Mul_output_0">
					<dim>-1</dim>
					<dim>32</dim>
					<dim>-1</dim>
					<dim>-1</dim>
				</port>
			</output>
		</layer>
		<layer id="101" name="Constant_316568_compressed" type="Const" version="opset1">
			<data element_type="f16" shape="" offset="42786" size="2" />
			<output>
				<port id="0" precision="FP16" />
			</output>
		</layer>
		<layer id="102" name="Constant_316568" type="Convert" version="opset1">
			<data destination_type="f32" />
			<rt_info>
				<attribute name="decompression" version="0" />
			</rt_info>
			<input>
				<port id="0" precision="FP16" />
			</input>
			<output>
				<port id="1" precision="FP32" />
			</output>
		</layer>
		<layer id="103" name="Constant_316569_compressed" type="Const" version="opset1">
			<data element_type="f16" shape="" offset="42788" size="2" />
			<output>
				<port id="0" precision="FP16" />
			</output>
		</layer>
		<layer id="104" name="Constant_316569" type="Convert" version="opset1">
			<data destination_type="f32" />
			<rt_info>
				<attribute name="decompression" version="0" />
			</rt_info>
			<input>
				<port id="0" precision="FP16" />
			</input>
			<output>
				<port id="1" precision="FP32" />
			</output>
		</layer>
		<layer id="105" name="Constant_316570_compressed" type="Const" version="opset1">
			<data element_type="f16" shape="" offset="42790" size="2" />
			<output>
				<port id="0" precision="FP16" />
			</output>
		</layer>
		<layer id="106" name="Constant_316570" type="Convert" version="opset1">
			<data destination_type="f32" />
			<rt_info>
				<attribute name="decompression" version="0" />
			</rt_info>
			<input>
				<port id="0" precision="FP16" />
			</input>
			<output>
				<port id="1" precision="FP32" />
			</output>
		</layer>
		<layer id="107" name="Constant_316571_compressed" type="Const" version="opset1">
			<data element_type="f16" shape="" offset="42792" size="2" />
			<output>
				<port id="0" precision="FP16" />
			</output>
		</layer>
		<layer id="108" name="Constant_316571" type="Convert" version="opset1">
			<data destination_type="f32" />
			<rt_info>
				<attribute name="decompression" version="0" />
			</rt_info>
			<input>
				<port id="0" precision="FP16" />
			</input>
			<output>
				<port id="1" precision="FP32" />
			</output>
		</layer>
		<layer id="109" name="/model.2/m.0/cv2/act/Mul/fq_output_0" type="FakeQuantize" version="opset1">
			<data levels="256" auto_broadcast="numpy" />
			<input>
				<port id="0" precision="FP32">
					<dim>-1</dim>
					<dim>32</dim>
					<dim>-1</dim>
					<dim>-1</dim>
				</port>
				<port id="1" precision="FP32" />
				<port id="2" precision="FP32" />
				<port id="3" precision="FP32" />
				<port id="4" precision="FP32" />
			</input>
			<output>
				<port id="5" precision="FP32">
					<dim>-1</dim>
					<dim>32</dim>
					<dim>-1</dim>
					<dim>-1</dim>
				</port>
			</output>
		</layer>
		<layer id="110" name="/model.2/m.0/Add" type="Add" version="opset1">
			<data auto_broadcast="numpy" />
			<input>
				<port id="0" precision="FP32">
					<dim>-1</dim>
					<dim>32</dim>
					<dim>-1</dim>
					<dim>-1</dim>
				</port>
				<port id="1" precision="FP32">
					<dim>-1</dim>
					<dim>32</dim>
					<dim>-1</dim>
					<dim>-1</dim>
				</port>
			</input>
			<output>
				<port id="2" precision="FP32" names="/model.2/m.0/Add_output_0">
					<dim>-1</dim>
					<dim>32</dim>
					<dim>-1</dim>
					<dim>-1</dim>
				</port>
			</output>
		</layer>
		<layer id="111" name="Constant_316388_compressed" type="Const" version="opset1">
			<data element_type="f16" shape="" offset="42794" size="2" />
			<output>
				<port id="0" precision="FP16" />
			</output>
		</layer>
		<layer id="112" name="Constant_316388" type="Convert" version="opset1">
			<data destination_type="f32" />
			<rt_info>
				<attribute name="decompression" version="0" />
			</rt_info>
			<input>
				<port id="0" precision="FP16" />
			</input>
			<output>
				<port id="1" precision="FP32" />
			</output>
		</layer>
		<layer id="113" name="Constant_316389_compressed" type="Const" version="opset1">
			<data element_type="f16" shape="" offset="42796" size="2" />
			<output>
				<port id="0" precision="FP16" />
			</output>
		</layer>
		<layer id="114" name="Constant_316389" type="Convert" version="opset1">
			<data destination_type="f32" />
			<rt_info>
				<attribute name="decompression" version="0" />
			</rt_info>
			<input>
				<port id="0" precision="FP16" />
			</input>
			<output>
				<port id="1" precision="FP32" />
			</output>
		</layer>
		<layer id="115" name="Constant_316390_compressed" type="Const" version="opset1">
			<data element_type="f16" shape="" offset="42798" size="2" />
			<output>
				<port id="0" precision="FP16" />
			</output>
		</layer>
		<layer id="116" name="Constant_316390" type="Convert" version="opset1">
			<data destination_type="f32" />
			<rt_info>
				<attribute name="decompression" version="0" />
			</rt_info>
			<input>
				<port id="0" precision="FP16" />
			</input>
			<output>
				<port id="1" precision="FP32" />
			</output>
		</layer>
		<layer id="117" name="Constant_316391_compressed" type="Const" version="opset1">
			<data element_type="f16" shape="" offset="42800" size="2" />
			<output>
				<port id="0" precision="FP16" />
			</output>
		</layer>
		<layer id="118" name="Constant_316391" type="Convert" version="opset1">
			<data destination_type="f32" />
			<rt_info>
				<attribute name="decompression" version="0" />
			</rt_info>
			<input>
				<port id="0" precision="FP16" />
			</input>
			<output>
				<port id="1" precision="FP32" />
			</output>
		</layer>
		<layer id="119" name="/model.2/m.0/Add/fq_output_0" type="FakeQuantize" version="opset1">
			<data levels="256" auto_broadcast="numpy" />
			<input>
				<port id="0" precision="FP32">
					<dim>-1</dim>
					<dim>32</dim>
					<dim>-1</dim>
					<dim>-1</dim>
				</port>
				<port id="1" precision="FP32" />
				<port id="2" precision="FP32" />
				<port id="3" precision="FP32" />
				<port id="4" precision="FP32" />
			</input>
			<output>
				<port id="5" precision="FP32">
					<dim>-1</dim>
					<dim>32</dim>
					<dim>-1</dim>
					<dim>-1</dim>
				</port>
			</output>
		</layer>
		<layer id="120" name="/model.2/Concat" type="Concat" version="opset1">
			<data axis="1" />
			<input>
				<port id="0" precision="FP32">
					<dim>-1</dim>
					<dim>32</dim>
					<dim>-1</dim>
					<dim>-1</dim>
				</port>
				<port id="1" precision="FP32">
					<dim>-1</dim>
					<dim>32</dim>
					<dim>-1</dim>
					<dim>-1</dim>
				</port>
				<port id="2" precision="FP32">
					<dim>-1</dim>
					<dim>32</dim>
					<dim>-1</dim>
					<dim>-1</dim>
				</port>
			</input>
			<output>
				<port id="3" precision="FP32" names="/model.2/Concat_output_0">
					<dim>-1</dim>
					<dim>96</dim>
					<dim>-1</dim>
					<dim>-1</dim>
				</port>
			</output>
		</layer>
		<layer id="121" name="model.2.cv2.conv.weight" type="Const" version="opset1">
			<data element_type="i8" shape="64, 96, 1, 1" offset="42802" size="6144" />
			<output>
				<port id="0" precision="I8">
					<dim>64</dim>
					<dim>96</dim>
					<dim>1</dim>
					<dim>1</dim>
				</port>
			</output>
		</layer>
		<layer id="122" name="Convert_547451" type="Convert" version="opset1">
			<data destination_type="f32" />
			<input>
				<port id="0" precision="I8">
					<dim>64</dim>
					<dim>96</dim>
					<dim>1</dim>
					<dim>1</dim>
				</port>
			</input>
			<output>
				<port id="1" precision="FP32">
					<dim>64</dim>
					<dim>96</dim>
					<dim>1</dim>
					<dim>1</dim>
				</port>
			</output>
		</layer>
		<layer id="123" name="Constant_547349_compressed" type="Const" version="opset1">
			<data element_type="f16" shape="64, 1, 1, 1" offset="48946" size="128" />
			<output>
				<port id="0" precision="FP16">
					<dim>64</dim>
					<dim>1</dim>
					<dim>1</dim>
					<dim>1</dim>
				</port>
			</output>
		</layer>
		<layer id="124" name="Constant_547349" type="Convert" version="opset1">
			<data destination_type="f32" />
			<rt_info>
				<attribute name="decompression" version="0" />
			</rt_info>
			<input>
				<port id="0" precision="FP16">
					<dim>64</dim>
					<dim>1</dim>
					<dim>1</dim>
					<dim>1</dim>
				</port>
			</input>
			<output>
				<port id="1" precision="FP32">
					<dim>64</dim>
					<dim>1</dim>
					<dim>1</dim>
					<dim>1</dim>
				</port>
			</output>
		</layer>
		<layer id="125" name="/model.2/cv2/conv/Conv/WithoutBiases/fq_weights_1" type="Multiply" version="opset1">
			<data auto_broadcast="numpy" />
			<input>
				<port id="0" precision="FP32">
					<dim>64</dim>
					<dim>96</dim>
					<dim>1</dim>
					<dim>1</dim>
				</port>
				<port id="1" precision="FP32">
					<dim>64</dim>
					<dim>1</dim>
					<dim>1</dim>
					<dim>1</dim>
				</port>
			</input>
			<output>
				<port id="2" precision="FP32">
					<dim>64</dim>
					<dim>96</dim>
					<dim>1</dim>
					<dim>1</dim>
				</port>
			</output>
		</layer>
		<layer id="126" name="/model.2/cv2/conv/Conv/WithoutBiases" type="Convolution" version="opset1">
			<data strides="1, 1" dilations="1, 1" pads_begin="0, 0" pads_end="0, 0" auto_pad="explicit" />
			<input>
				<port id="0" precision="FP32">
					<dim>-1</dim>
					<dim>96</dim>
					<dim>-1</dim>
					<dim>-1</dim>
				</port>
				<port id="1" precision="FP32">
					<dim>64</dim>
					<dim>96</dim>
					<dim>1</dim>
					<dim>1</dim>
				</port>
			</input>
			<output>
				<port id="2" precision="FP32">
					<dim>-1</dim>
					<dim>64</dim>
					<dim>-1</dim>
					<dim>-1</dim>
				</port>
			</output>
		</layer>
		<layer id="127" name="Reshape_230_compressed" type="Const" version="opset1">
			<data element_type="f16" shape="1, 64, 1, 1" offset="49074" size="128" />
			<output>
				<port id="0" precision="FP16">
					<dim>1</dim>
					<dim>64</dim>
					<dim>1</dim>
					<dim>1</dim>
				</port>
			</output>
		</layer>
		<layer id="128" name="Reshape_230" type="Convert" version="opset1">
			<data destination_type="f32" />
			<rt_info>
				<attribute name="decompression" version="0" />
			</rt_info>
			<input>
				<port id="0" precision="FP16">
					<dim>1</dim>
					<dim>64</dim>
					<dim>1</dim>
					<dim>1</dim>
				</port>
			</input>
			<output>
				<port id="1" precision="FP32">
					<dim>1</dim>
					<dim>64</dim>
					<dim>1</dim>
					<dim>1</dim>
				</port>
			</output>
		</layer>
		<layer id="129" name="/model.2/cv2/conv/Conv" type="Add" version="opset1">
			<data auto_broadcast="numpy" />
			<input>
				<port id="0" precision="FP32">
					<dim>-1</dim>
					<dim>64</dim>
					<dim>-1</dim>
					<dim>-1</dim>
				</port>
				<port id="1" precision="FP32">
					<dim>1</dim>
					<dim>64</dim>
					<dim>1</dim>
					<dim>1</dim>
				</port>
			</input>
			<output>
				<port id="2" precision="FP32" names="/model.2/cv2/conv/Conv_output_0">
					<dim>-1</dim>
					<dim>64</dim>
					<dim>-1</dim>
					<dim>-1</dim>
				</port>
			</output>
		</layer>
		<layer id="130" name="/model.2/cv2/act/Mul" type="Swish" version="opset4">
			<input>
				<port id="0" precision="FP32">
					<dim>-1</dim>
					<dim>64</dim>
					<dim>-1</dim>
					<dim>-1</dim>
				</port>
			</input>
			<output>
				<port id="1" precision="FP32" names="/model.2/cv2/act/Mul_output_0">
					<dim>-1</dim>
					<dim>64</dim>
					<dim>-1</dim>
					<dim>-1</dim>
				</port>
			</output>
		</layer>
		<layer id="131" name="Constant_316578_compressed" type="Const" version="opset1">
			<data element_type="f16" shape="" offset="49202" size="2" />
			<output>
				<port id="0" precision="FP16" />
			</output>
		</layer>
		<layer id="132" name="Constant_316578" type="Convert" version="opset1">
			<data destination_type="f32" />
			<rt_info>
				<attribute name="decompression" version="0" />
			</rt_info>
			<input>
				<port id="0" precision="FP16" />
			</input>
			<output>
				<port id="1" precision="FP32" />
			</output>
		</layer>
		<layer id="133" name="Constant_316579_compressed" type="Const" version="opset1">
			<data element_type="f16" shape="" offset="49204" size="2" />
			<output>
				<port id="0" precision="FP16" />
			</output>
		</layer>
		<layer id="134" name="Constant_316579" type="Convert" version="opset1">
			<data destination_type="f32" />
			<rt_info>
				<attribute name="decompression" version="0" />
			</rt_info>
			<input>
				<port id="0" precision="FP16" />
			</input>
			<output>
				<port id="1" precision="FP32" />
			</output>
		</layer>
		<layer id="135" name="Constant_316580_compressed" type="Const" version="opset1">
			<data element_type="f16" shape="" offset="49206" size="2" />
			<output>
				<port id="0" precision="FP16" />
			</output>
		</layer>
		<layer id="136" name="Constant_316580" type="Convert" version="opset1">
			<data destination_type="f32" />
			<rt_info>
				<attribute name="decompression" version="0" />
			</rt_info>
			<input>
				<port id="0" precision="FP16" />
			</input>
			<output>
				<port id="1" precision="FP32" />
			</output>
		</layer>
		<layer id="137" name="Constant_316581_compressed" type="Const" version="opset1">
			<data element_type="f16" shape="" offset="49208" size="2" />
			<output>
				<port id="0" precision="FP16" />
			</output>
		</layer>
		<layer id="138" name="Constant_316581" type="Convert" version="opset1">
			<data destination_type="f32" />
			<rt_info>
				<attribute name="decompression" version="0" />
			</rt_info>
			<input>
				<port id="0" precision="FP16" />
			</input>
			<output>
				<port id="1" precision="FP32" />
			</output>
		</layer>
		<layer id="139" name="/model.2/cv2/act/Mul/fq_output_0" type="FakeQuantize" version="opset1">
			<data levels="256" auto_broadcast="numpy" />
			<input>
				<port id="0" precision="FP32">
					<dim>-1</dim>
					<dim>64</dim>
					<dim>-1</dim>
					<dim>-1</dim>
				</port>
				<port id="1" precision="FP32" />
				<port id="2" precision="FP32" />
				<port id="3" precision="FP32" />
				<port id="4" precision="FP32" />
			</input>
			<output>
				<port id="5" precision="FP32">
					<dim>-1</dim>
					<dim>64</dim>
					<dim>-1</dim>
					<dim>-1</dim>
				</port>
			</output>
		</layer>
		<layer id="140" name="model.3.conv.weight" type="Const" version="opset1">
			<data element_type="i8" shape="128, 64, 3, 3" offset="49210" size="73728" />
			<output>
				<port id="0" precision="I8">
					<dim>128</dim>
					<dim>64</dim>
					<dim>3</dim>
					<dim>3</dim>
				</port>
			</output>
		</layer>
		<layer id="141" name="Convert_547605" type="Convert" version="opset1">
			<data destination_type="f32" />
			<input>
				<port id="0" precision="I8">
					<dim>128</dim>
					<dim>64</dim>
					<dim>3</dim>
					<dim>3</dim>
				</port>
			</input>
			<output>
				<port id="1" precision="FP32">
					<dim>128</dim>
					<dim>64</dim>
					<dim>3</dim>
					<dim>3</dim>
				</port>
			</output>
		</layer>
		<layer id="142" name="Constant_547503_compressed" type="Const" version="opset1">
			<data element_type="f16" shape="128, 1, 1, 1" offset="122938" size="256" />
			<output>
				<port id="0" precision="FP16">
					<dim>128</dim>
					<dim>1</dim>
					<dim>1</dim>
					<dim>1</dim>
				</port>
			</output>
		</layer>
		<layer id="143" name="Constant_547503" type="Convert" version="opset1">
			<data destination_type="f32" />
			<rt_info>
				<attribute name="decompression" version="0" />
			</rt_info>
			<input>
				<port id="0" precision="FP16">
					<dim>128</dim>
					<dim>1</dim>
					<dim>1</dim>
					<dim>1</dim>
				</port>
			</input>
			<output>
				<port id="1" precision="FP32">
					<dim>128</dim>
					<dim>1</dim>
					<dim>1</dim>
					<dim>1</dim>
				</port>
			</output>
		</layer>
		<layer id="144" name="/model.3/conv/Conv/WithoutBiases/fq_weights_1" type="Multiply" version="opset1">
			<data auto_broadcast="numpy" />
			<input>
				<port id="0" precision="FP32">
					<dim>128</dim>
					<dim>64</dim>
					<dim>3</dim>
					<dim>3</dim>
				</port>
				<port id="1" precision="FP32">
					<dim>128</dim>
					<dim>1</dim>
					<dim>1</dim>
					<dim>1</dim>
				</port>
			</input>
			<output>
				<port id="2" precision="FP32">
					<dim>128</dim>
					<dim>64</dim>
					<dim>3</dim>
					<dim>3</dim>
				</port>
			</output>
		</layer>
		<layer id="145" name="/model.3/conv/Conv/WithoutBiases" type="Convolution" version="opset1">
			<data strides="2, 2" dilations="1, 1" pads_begin="1, 1" pads_end="1, 1" auto_pad="explicit" />
			<input>
				<port id="0" precision="FP32">
					<dim>-1</dim>
					<dim>64</dim>
					<dim>-1</dim>
					<dim>-1</dim>
				</port>
				<port id="1" precision="FP32">
					<dim>128</dim>
					<dim>64</dim>
					<dim>3</dim>
					<dim>3</dim>
				</port>
			</input>
			<output>
				<port id="2" precision="FP32">
					<dim>-1</dim>
					<dim>128</dim>
					<dim>-1</dim>
					<dim>-1</dim>
				</port>
			</output>
		</layer>
		<layer id="146" name="Reshape_247_compressed" type="Const" version="opset1">
			<data element_type="f16" shape="1, 128, 1, 1" offset="123194" size="256" />
			<output>
				<port id="0" precision="FP16">
					<dim>1</dim>
					<dim>128</dim>
					<dim>1</dim>
					<dim>1</dim>
				</port>
			</output>
		</layer>
		<layer id="147" name="Reshape_247" type="Convert" version="opset1">
			<data destination_type="f32" />
			<rt_info>
				<attribute name="decompression" version="0" />
			</rt_info>
			<input>
				<port id="0" precision="FP16">
					<dim>1</dim>
					<dim>128</dim>
					<dim>1</dim>
					<dim>1</dim>
				</port>
			</input>
			<output>
				<port id="1" precision="FP32">
					<dim>1</dim>
					<dim>128</dim>
					<dim>1</dim>
					<dim>1</dim>
				</port>
			</output>
		</layer>
		<layer id="148" name="/model.3/conv/Conv" type="Add" version="opset1">
			<data auto_broadcast="numpy" />
			<input>
				<port id="0" precision="FP32">
					<dim>-1</dim>
					<dim>128</dim>
					<dim>-1</dim>
					<dim>-1</dim>
				</port>
				<port id="1" precision="FP32">
					<dim>1</dim>
					<dim>128</dim>
					<dim>1</dim>
					<dim>1</dim>
				</port>
			</input>
			<output>
				<port id="2" precision="FP32" names="/model.3/conv/Conv_output_0">
					<dim>-1</dim>
					<dim>128</dim>
					<dim>-1</dim>
					<dim>-1</dim>
				</port>
			</output>
		</layer>
		<layer id="149" name="/model.3/act/Mul" type="Swish" version="opset4">
			<input>
				<port id="0" precision="FP32">
					<dim>-1</dim>
					<dim>128</dim>
					<dim>-1</dim>
					<dim>-1</dim>
				</port>
			</input>
			<output>
				<port id="1" precision="FP32" names="/model.3/act/Mul_output_0">
					<dim>-1</dim>
					<dim>128</dim>
					<dim>-1</dim>
					<dim>-1</dim>
				</port>
			</output>
		</layer>
		<layer id="150" name="Constant_316588_compressed" type="Const" version="opset1">
			<data element_type="f16" shape="" offset="123450" size="2" />
			<output>
				<port id="0" precision="FP16" />
			</output>
		</layer>
		<layer id="151" name="Constant_316588" type="Convert" version="opset1">
			<data destination_type="f32" />
			<rt_info>
				<attribute name="decompression" version="0" />
			</rt_info>
			<input>
				<port id="0" precision="FP16" />
			</input>
			<output>
				<port id="1" precision="FP32" />
			</output>
		</layer>
		<layer id="152" name="Constant_316589_compressed" type="Const" version="opset1">
			<data element_type="f16" shape="" offset="123452" size="2" />
			<output>
				<port id="0" precision="FP16" />
			</output>
		</layer>
		<layer id="153" name="Constant_316589" type="Convert" version="opset1">
			<data destination_type="f32" />
			<rt_info>
				<attribute name="decompression" version="0" />
			</rt_info>
			<input>
				<port id="0" precision="FP16" />
			</input>
			<output>
				<port id="1" precision="FP32" />
			</output>
		</layer>
		<layer id="154" name="Constant_316590_compressed" type="Const" version="opset1">
			<data element_type="f16" shape="" offset="123454" size="2" />
			<output>
				<port id="0" precision="FP16" />
			</output>
		</layer>
		<layer id="155" name="Constant_316590" type="Convert" version="opset1">
			<data destination_type="f32" />
			<rt_info>
				<attribute name="decompression" version="0" />
			</rt_info>
			<input>
				<port id="0" precision="FP16" />
			</input>
			<output>
				<port id="1" precision="FP32" />
			</output>
		</layer>
		<layer id="156" name="Constant_316591_compressed" type="Const" version="opset1">
			<data element_type="f16" shape="" offset="123456" size="2" />
			<output>
				<port id="0" precision="FP16" />
			</output>
		</layer>
		<layer id="157" name="Constant_316591" type="Convert" version="opset1">
			<data destination_type="f32" />
			<rt_info>
				<attribute name="decompression" version="0" />
			</rt_info>
			<input>
				<port id="0" precision="FP16" />
			</input>
			<output>
				<port id="1" precision="FP32" />
			</output>
		</layer>
		<layer id="158" name="/model.3/act/Mul/fq_output_0" type="FakeQuantize" version="opset1">
			<data levels="256" auto_broadcast="numpy" />
			<input>
				<port id="0" precision="FP32">
					<dim>-1</dim>
					<dim>128</dim>
					<dim>-1</dim>
					<dim>-1</dim>
				</port>
				<port id="1" precision="FP32" />
				<port id="2" precision="FP32" />
				<port id="3" precision="FP32" />
				<port id="4" precision="FP32" />
			</input>
			<output>
				<port id="5" precision="FP32">
					<dim>-1</dim>
					<dim>128</dim>
					<dim>-1</dim>
					<dim>-1</dim>
				</port>
			</output>
		</layer>
		<layer id="159" name="model.4.cv1.conv.weight" type="Const" version="opset1">
			<data element_type="i8" shape="128, 128, 1, 1" offset="123458" size="16384" />
			<output>
				<port id="0" precision="I8">
					<dim>128</dim>
					<dim>128</dim>
					<dim>1</dim>
					<dim>1</dim>
				</port>
			</output>
		</layer>
		<layer id="160" name="Convert_547759" type="Convert" version="opset1">
			<data destination_type="f32" />
			<input>
				<port id="0" precision="I8">
					<dim>128</dim>
					<dim>128</dim>
					<dim>1</dim>
					<dim>1</dim>
				</port>
			</input>
			<output>
				<port id="1" precision="FP32">
					<dim>128</dim>
					<dim>128</dim>
					<dim>1</dim>
					<dim>1</dim>
				</port>
			</output>
		</layer>
		<layer id="161" name="Constant_547657_compressed" type="Const" version="opset1">
			<data element_type="f16" shape="128, 1, 1, 1" offset="139842" size="256" />
			<output>
				<port id="0" precision="FP16">
					<dim>128</dim>
					<dim>1</dim>
					<dim>1</dim>
					<dim>1</dim>
				</port>
			</output>
		</layer>
		<layer id="162" name="Constant_547657" type="Convert" version="opset1">
			<data destination_type="f32" />
			<rt_info>
				<attribute name="decompression" version="0" />
			</rt_info>
			<input>
				<port id="0" precision="FP16">
					<dim>128</dim>
					<dim>1</dim>
					<dim>1</dim>
					<dim>1</dim>
				</port>
			</input>
			<output>
				<port id="1" precision="FP32">
					<dim>128</dim>
					<dim>1</dim>
					<dim>1</dim>
					<dim>1</dim>
				</port>
			</output>
		</layer>
		<layer id="163" name="/model.4/cv1/conv/Conv/WithoutBiases/fq_weights_1" type="Multiply" version="opset1">
			<data auto_broadcast="numpy" />
			<input>
				<port id="0" precision="FP32">
					<dim>128</dim>
					<dim>128</dim>
					<dim>1</dim>
					<dim>1</dim>
				</port>
				<port id="1" precision="FP32">
					<dim>128</dim>
					<dim>1</dim>
					<dim>1</dim>
					<dim>1</dim>
				</port>
			</input>
			<output>
				<port id="2" precision="FP32">
					<dim>128</dim>
					<dim>128</dim>
					<dim>1</dim>
					<dim>1</dim>
				</port>
			</output>
		</layer>
		<layer id="164" name="/model.4/cv1/conv/Conv/WithoutBiases" type="Convolution" version="opset1">
			<data strides="1, 1" dilations="1, 1" pads_begin="0, 0" pads_end="0, 0" auto_pad="explicit" />
			<input>
				<port id="0" precision="FP32">
					<dim>-1</dim>
					<dim>128</dim>
					<dim>-1</dim>
					<dim>-1</dim>
				</port>
				<port id="1" precision="FP32">
					<dim>128</dim>
					<dim>128</dim>
					<dim>1</dim>
					<dim>1</dim>
				</port>
			</input>
			<output>
				<port id="2" precision="FP32">
					<dim>-1</dim>
					<dim>128</dim>
					<dim>-1</dim>
					<dim>-1</dim>
				</port>
			</output>
		</layer>
		<layer id="165" name="Reshape_264_compressed" type="Const" version="opset1">
			<data element_type="f16" shape="1, 128, 1, 1" offset="140098" size="256" />
			<output>
				<port id="0" precision="FP16">
					<dim>1</dim>
					<dim>128</dim>
					<dim>1</dim>
					<dim>1</dim>
				</port>
			</output>
		</layer>
		<layer id="166" name="Reshape_264" type="Convert" version="opset1">
			<data destination_type="f32" />
			<rt_info>
				<attribute name="decompression" version="0" />
			</rt_info>
			<input>
				<port id="0" precision="FP16">
					<dim>1</dim>
					<dim>128</dim>
					<dim>1</dim>
					<dim>1</dim>
				</port>
			</input>
			<output>
				<port id="1" precision="FP32">
					<dim>1</dim>
					<dim>128</dim>
					<dim>1</dim>
					<dim>1</dim>
				</port>
			</output>
		</layer>
		<layer id="167" name="/model.4/cv1/conv/Conv" type="Add" version="opset1">
			<data auto_broadcast="numpy" />
			<input>
				<port id="0" precision="FP32">
					<dim>-1</dim>
					<dim>128</dim>
					<dim>-1</dim>
					<dim>-1</dim>
				</port>
				<port id="1" precision="FP32">
					<dim>1</dim>
					<dim>128</dim>
					<dim>1</dim>
					<dim>1</dim>
				</port>
			</input>
			<output>
				<port id="2" precision="FP32" names="/model.4/cv1/conv/Conv_output_0">
					<dim>-1</dim>
					<dim>128</dim>
					<dim>-1</dim>
					<dim>-1</dim>
				</port>
			</output>
		</layer>
		<layer id="168" name="/model.4/cv1/act/Mul" type="Swish" version="opset4">
			<input>
				<port id="0" precision="FP32">
					<dim>-1</dim>
					<dim>128</dim>
					<dim>-1</dim>
					<dim>-1</dim>
				</port>
			</input>
			<output>
				<port id="1" precision="FP32" names="/model.4/cv1/act/Mul_output_0">
					<dim>-1</dim>
					<dim>128</dim>
					<dim>-1</dim>
					<dim>-1</dim>
				</port>
			</output>
		</layer>
		<layer id="169" name="Constant_316403_compressed" type="Const" version="opset1">
			<data element_type="f16" shape="" offset="140354" size="2" />
			<output>
				<port id="0" precision="FP16" />
			</output>
		</layer>
		<layer id="170" name="Constant_316403" type="Convert" version="opset1">
			<data destination_type="f32" />
			<rt_info>
				<attribute name="decompression" version="0" />
			</rt_info>
			<input>
				<port id="0" precision="FP16" />
			</input>
			<output>
				<port id="1" precision="FP32" />
			</output>
		</layer>
		<layer id="171" name="Constant_316404_compressed" type="Const" version="opset1">
			<data element_type="f16" shape="" offset="140356" size="2" />
			<output>
				<port id="0" precision="FP16" />
			</output>
		</layer>
		<layer id="172" name="Constant_316404" type="Convert" version="opset1">
			<data destination_type="f32" />
			<rt_info>
				<attribute name="decompression" version="0" />
			</rt_info>
			<input>
				<port id="0" precision="FP16" />
			</input>
			<output>
				<port id="1" precision="FP32" />
			</output>
		</layer>
		<layer id="173" name="Constant_316405_compressed" type="Const" version="opset1">
			<data element_type="f16" shape="" offset="140358" size="2" />
			<output>
				<port id="0" precision="FP16" />
			</output>
		</layer>
		<layer id="174" name="Constant_316405" type="Convert" version="opset1">
			<data destination_type="f32" />
			<rt_info>
				<attribute name="decompression" version="0" />
			</rt_info>
			<input>
				<port id="0" precision="FP16" />
			</input>
			<output>
				<port id="1" precision="FP32" />
			</output>
		</layer>
		<layer id="175" name="Constant_316406_compressed" type="Const" version="opset1">
			<data element_type="f16" shape="" offset="140360" size="2" />
			<output>
				<port id="0" precision="FP16" />
			</output>
		</layer>
		<layer id="176" name="Constant_316406" type="Convert" version="opset1">
			<data destination_type="f32" />
			<rt_info>
				<attribute name="decompression" version="0" />
			</rt_info>
			<input>
				<port id="0" precision="FP16" />
			</input>
			<output>
				<port id="1" precision="FP32" />
			</output>
		</layer>
		<layer id="177" name="/model.4/cv1/act/Mul/fq_output_0" type="FakeQuantize" version="opset1">
			<data levels="256" auto_broadcast="numpy" />
			<input>
				<port id="0" precision="FP32">
					<dim>-1</dim>
					<dim>128</dim>
					<dim>-1</dim>
					<dim>-1</dim>
				</port>
				<port id="1" precision="FP32" />
				<port id="2" precision="FP32" />
				<port id="3" precision="FP32" />
				<port id="4" precision="FP32" />
			</input>
			<output>
				<port id="5" precision="FP32">
					<dim>-1</dim>
					<dim>128</dim>
					<dim>-1</dim>
					<dim>-1</dim>
				</port>
			</output>
		</layer>
		<layer id="178" name="Constant_271_2" type="Const" version="opset1">
			<data element_type="i64" shape="" offset="24066" size="8" />
			<output>
				<port id="0" precision="I64" />
			</output>
		</layer>
		<layer id="179" name="Constant_28" type="Const" version="opset1">
			<data element_type="i64" shape="2" offset="140362" size="16" />
			<output>
				<port id="0" precision="I64" names="onnx::Split_158">
					<dim>2</dim>
				</port>
			</output>
		</layer>
		<layer id="180" name="/model.4/Split" type="VariadicSplit" version="opset1">
			<input>
				<port id="0" precision="FP32">
					<dim>-1</dim>
					<dim>128</dim>
					<dim>-1</dim>
					<dim>-1</dim>
				</port>
				<port id="1" precision="I64" />
				<port id="2" precision="I64">
					<dim>2</dim>
				</port>
			</input>
			<output>
				<port id="3" precision="FP32" names="/model.4/Split_output_0">
					<dim>-1</dim>
					<dim>64</dim>
					<dim>-1</dim>
					<dim>-1</dim>
				</port>
				<port id="4" precision="FP32" names="/model.4/Split_output_1">
					<dim>-1</dim>
					<dim>64</dim>
					<dim>-1</dim>
					<dim>-1</dim>
				</port>
			</output>
		</layer>
		<layer id="181" name="model.4.m.0.cv1.conv.weight" type="Const" version="opset1">
			<data element_type="i8" shape="64, 64, 3, 3" offset="140378" size="36864" />
			<output>
				<port id="0" precision="I8">
					<dim>64</dim>
					<dim>64</dim>
					<dim>3</dim>
					<dim>3</dim>
				</port>
			</output>
		</layer>
		<layer id="182" name="Convert_547913" type="Convert" version="opset1">
			<data destination_type="f32" />
			<input>
				<port id="0" precision="I8">
					<dim>64</dim>
					<dim>64</dim>
					<dim>3</dim>
					<dim>3</dim>
				</port>
			</input>
			<output>
				<port id="1" precision="FP32">
					<dim>64</dim>
					<dim>64</dim>
					<dim>3</dim>
					<dim>3</dim>
				</port>
			</output>
		</layer>
		<layer id="183" name="Constant_547811_compressed" type="Const" version="opset1">
			<data element_type="f16" shape="64, 1, 1, 1" offset="177242" size="128" />
			<output>
				<port id="0" precision="FP16">
					<dim>64</dim>
					<dim>1</dim>
					<dim>1</dim>
					<dim>1</dim>
				</port>
			</output>
		</layer>
		<layer id="184" name="Constant_547811" type="Convert" version="opset1">
			<data destination_type="f32" />
			<rt_info>
				<attribute name="decompression" version="0" />
			</rt_info>
			<input>
				<port id="0" precision="FP16">
					<dim>64</dim>
					<dim>1</dim>
					<dim>1</dim>
					<dim>1</dim>
				</port>
			</input>
			<output>
				<port id="1" precision="FP32">
					<dim>64</dim>
					<dim>1</dim>
					<dim>1</dim>
					<dim>1</dim>
				</port>
			</output>
		</layer>
		<layer id="185" name="/model.4/m.0/cv1/conv/Conv/WithoutBiases/fq_weights_1" type="Multiply" version="opset1">
			<data auto_broadcast="numpy" />
			<input>
				<port id="0" precision="FP32">
					<dim>64</dim>
					<dim>64</dim>
					<dim>3</dim>
					<dim>3</dim>
				</port>
				<port id="1" precision="FP32">
					<dim>64</dim>
					<dim>1</dim>
					<dim>1</dim>
					<dim>1</dim>
				</port>
			</input>
			<output>
				<port id="2" precision="FP32">
					<dim>64</dim>
					<dim>64</dim>
					<dim>3</dim>
					<dim>3</dim>
				</port>
			</output>
		</layer>
		<layer id="186" name="/model.4/m.0/cv1/conv/Conv/WithoutBiases" type="Convolution" version="opset1">
			<data strides="1, 1" dilations="1, 1" pads_begin="1, 1" pads_end="1, 1" auto_pad="explicit" />
			<input>
				<port id="0" precision="FP32">
					<dim>-1</dim>
					<dim>64</dim>
					<dim>-1</dim>
					<dim>-1</dim>
				</port>
				<port id="1" precision="FP32">
					<dim>64</dim>
					<dim>64</dim>
					<dim>3</dim>
					<dim>3</dim>
				</port>
			</input>
			<output>
				<port id="2" precision="FP32">
					<dim>-1</dim>
					<dim>64</dim>
					<dim>-1</dim>
					<dim>-1</dim>
				</port>
			</output>
		</layer>
		<layer id="187" name="Reshape_284_compressed" type="Const" version="opset1">
			<data element_type="f16" shape="1, 64, 1, 1" offset="177370" size="128" />
			<output>
				<port id="0" precision="FP16">
					<dim>1</dim>
					<dim>64</dim>
					<dim>1</dim>
					<dim>1</dim>
				</port>
			</output>
		</layer>
		<layer id="188" name="Reshape_284" type="Convert" version="opset1">
			<data destination_type="f32" />
			<rt_info>
				<attribute name="decompression" version="0" />
			</rt_info>
			<input>
				<port id="0" precision="FP16">
					<dim>1</dim>
					<dim>64</dim>
					<dim>1</dim>
					<dim>1</dim>
				</port>
			</input>
			<output>
				<port id="1" precision="FP32">
					<dim>1</dim>
					<dim>64</dim>
					<dim>1</dim>
					<dim>1</dim>
				</port>
			</output>
		</layer>
		<layer id="189" name="/model.4/m.0/cv1/conv/Conv" type="Add" version="opset1">
			<data auto_broadcast="numpy" />
			<input>
				<port id="0" precision="FP32">
					<dim>-1</dim>
					<dim>64</dim>
					<dim>-1</dim>
					<dim>-1</dim>
				</port>
				<port id="1" precision="FP32">
					<dim>1</dim>
					<dim>64</dim>
					<dim>1</dim>
					<dim>1</dim>
				</port>
			</input>
			<output>
				<port id="2" precision="FP32" names="/model.4/m.0/cv1/conv/Conv_output_0">
					<dim>-1</dim>
					<dim>64</dim>
					<dim>-1</dim>
					<dim>-1</dim>
				</port>
			</output>
		</layer>
		<layer id="190" name="/model.4/m.0/cv1/act/Mul" type="Swish" version="opset4">
			<input>
				<port id="0" precision="FP32">
					<dim>-1</dim>
					<dim>64</dim>
					<dim>-1</dim>
					<dim>-1</dim>
				</port>
			</input>
			<output>
				<port id="1" precision="FP32" names="/model.4/m.0/cv1/act/Mul_output_0">
					<dim>-1</dim>
					<dim>64</dim>
					<dim>-1</dim>
					<dim>-1</dim>
				</port>
			</output>
		</layer>
		<layer id="191" name="Constant_316603_compressed" type="Const" version="opset1">
			<data element_type="f16" shape="" offset="177498" size="2" />
			<output>
				<port id="0" precision="FP16" />
			</output>
		</layer>
		<layer id="192" name="Constant_316603" type="Convert" version="opset1">
			<data destination_type="f32" />
			<rt_info>
				<attribute name="decompression" version="0" />
			</rt_info>
			<input>
				<port id="0" precision="FP16" />
			</input>
			<output>
				<port id="1" precision="FP32" />
			</output>
		</layer>
		<layer id="193" name="Constant_316604_compressed" type="Const" version="opset1">
			<data element_type="f16" shape="" offset="177500" size="2" />
			<output>
				<port id="0" precision="FP16" />
			</output>
		</layer>
		<layer id="194" name="Constant_316604" type="Convert" version="opset1">
			<data destination_type="f32" />
			<rt_info>
				<attribute name="decompression" version="0" />
			</rt_info>
			<input>
				<port id="0" precision="FP16" />
			</input>
			<output>
				<port id="1" precision="FP32" />
			</output>
		</layer>
		<layer id="195" name="Constant_316605_compressed" type="Const" version="opset1">
			<data element_type="f16" shape="" offset="177502" size="2" />
			<output>
				<port id="0" precision="FP16" />
			</output>
		</layer>
		<layer id="196" name="Constant_316605" type="Convert" version="opset1">
			<data destination_type="f32" />
			<rt_info>
				<attribute name="decompression" version="0" />
			</rt_info>
			<input>
				<port id="0" precision="FP16" />
			</input>
			<output>
				<port id="1" precision="FP32" />
			</output>
		</layer>
		<layer id="197" name="Constant_316606_compressed" type="Const" version="opset1">
			<data element_type="f16" shape="" offset="177504" size="2" />
			<output>
				<port id="0" precision="FP16" />
			</output>
		</layer>
		<layer id="198" name="Constant_316606" type="Convert" version="opset1">
			<data destination_type="f32" />
			<rt_info>
				<attribute name="decompression" version="0" />
			</rt_info>
			<input>
				<port id="0" precision="FP16" />
			</input>
			<output>
				<port id="1" precision="FP32" />
			</output>
		</layer>
		<layer id="199" name="/model.4/m.0/cv1/act/Mul/fq_output_0" type="FakeQuantize" version="opset1">
			<data levels="256" auto_broadcast="numpy" />
			<input>
				<port id="0" precision="FP32">
					<dim>-1</dim>
					<dim>64</dim>
					<dim>-1</dim>
					<dim>-1</dim>
				</port>
				<port id="1" precision="FP32" />
				<port id="2" precision="FP32" />
				<port id="3" precision="FP32" />
				<port id="4" precision="FP32" />
			</input>
			<output>
				<port id="5" precision="FP32">
					<dim>-1</dim>
					<dim>64</dim>
					<dim>-1</dim>
					<dim>-1</dim>
				</port>
			</output>
		</layer>
		<layer id="200" name="model.4.m.0.cv2.conv.weight" type="Const" version="opset1">
			<data element_type="i8" shape="64, 64, 3, 3" offset="177506" size="36864" />
			<output>
				<port id="0" precision="I8">
					<dim>64</dim>
					<dim>64</dim>
					<dim>3</dim>
					<dim>3</dim>
				</port>
			</output>
		</layer>
		<layer id="201" name="Convert_548067" type="Convert" version="opset1">
			<data destination_type="f32" />
			<input>
				<port id="0" precision="I8">
					<dim>64</dim>
					<dim>64</dim>
					<dim>3</dim>
					<dim>3</dim>
				</port>
			</input>
			<output>
				<port id="1" precision="FP32">
					<dim>64</dim>
					<dim>64</dim>
					<dim>3</dim>
					<dim>3</dim>
				</port>
			</output>
		</layer>
		<layer id="202" name="Constant_547965_compressed" type="Const" version="opset1">
			<data element_type="f16" shape="64, 1, 1, 1" offset="214370" size="128" />
			<output>
				<port id="0" precision="FP16">
					<dim>64</dim>
					<dim>1</dim>
					<dim>1</dim>
					<dim>1</dim>
				</port>
			</output>
		</layer>
		<layer id="203" name="Constant_547965" type="Convert" version="opset1">
			<data destination_type="f32" />
			<rt_info>
				<attribute name="decompression" version="0" />
			</rt_info>
			<input>
				<port id="0" precision="FP16">
					<dim>64</dim>
					<dim>1</dim>
					<dim>1</dim>
					<dim>1</dim>
				</port>
			</input>
			<output>
				<port id="1" precision="FP32">
					<dim>64</dim>
					<dim>1</dim>
					<dim>1</dim>
					<dim>1</dim>
				</port>
			</output>
		</layer>
		<layer id="204" name="/model.4/m.0/cv2/conv/Conv/WithoutBiases/fq_weights_1" type="Multiply" version="opset1">
			<data auto_broadcast="numpy" />
			<input>
				<port id="0" precision="FP32">
					<dim>64</dim>
					<dim>64</dim>
					<dim>3</dim>
					<dim>3</dim>
				</port>
				<port id="1" precision="FP32">
					<dim>64</dim>
					<dim>1</dim>
					<dim>1</dim>
					<dim>1</dim>
				</port>
			</input>
			<output>
				<port id="2" precision="FP32">
					<dim>64</dim>
					<dim>64</dim>
					<dim>3</dim>
					<dim>3</dim>
				</port>
			</output>
		</layer>
		<layer id="205" name="/model.4/m.0/cv2/conv/Conv/WithoutBiases" type="Convolution" version="opset1">
			<data strides="1, 1" dilations="1, 1" pads_begin="1, 1" pads_end="1, 1" auto_pad="explicit" />
			<input>
				<port id="0" precision="FP32">
					<dim>-1</dim>
					<dim>64</dim>
					<dim>-1</dim>
					<dim>-1</dim>
				</port>
				<port id="1" precision="FP32">
					<dim>64</dim>
					<dim>64</dim>
					<dim>3</dim>
					<dim>3</dim>
				</port>
			</input>
			<output>
				<port id="2" precision="FP32">
					<dim>-1</dim>
					<dim>64</dim>
					<dim>-1</dim>
					<dim>-1</dim>
				</port>
			</output>
		</layer>
		<layer id="206" name="Reshape_301_compressed" type="Const" version="opset1">
			<data element_type="f16" shape="1, 64, 1, 1" offset="214498" size="128" />
			<output>
				<port id="0" precision="FP16">
					<dim>1</dim>
					<dim>64</dim>
					<dim>1</dim>
					<dim>1</dim>
				</port>
			</output>
		</layer>
		<layer id="207" name="Reshape_301" type="Convert" version="opset1">
			<data destination_type="f32" />
			<rt_info>
				<attribute name="decompression" version="0" />
			</rt_info>
			<input>
				<port id="0" precision="FP16">
					<dim>1</dim>
					<dim>64</dim>
					<dim>1</dim>
					<dim>1</dim>
				</port>
			</input>
			<output>
				<port id="1" precision="FP32">
					<dim>1</dim>
					<dim>64</dim>
					<dim>1</dim>
					<dim>1</dim>
				</port>
			</output>
		</layer>
		<layer id="208" name="/model.4/m.0/cv2/conv/Conv" type="Add" version="opset1">
			<data auto_broadcast="numpy" />
			<input>
				<port id="0" precision="FP32">
					<dim>-1</dim>
					<dim>64</dim>
					<dim>-1</dim>
					<dim>-1</dim>
				</port>
				<port id="1" precision="FP32">
					<dim>1</dim>
					<dim>64</dim>
					<dim>1</dim>
					<dim>1</dim>
				</port>
			</input>
			<output>
				<port id="2" precision="FP32" names="/model.4/m.0/cv2/conv/Conv_output_0">
					<dim>-1</dim>
					<dim>64</dim>
					<dim>-1</dim>
					<dim>-1</dim>
				</port>
			</output>
		</layer>
		<layer id="209" name="/model.4/m.0/cv2/act/Mul" type="Swish" version="opset4">
			<input>
				<port id="0" precision="FP32">
					<dim>-1</dim>
					<dim>64</dim>
					<dim>-1</dim>
					<dim>-1</dim>
				</port>
			</input>
			<output>
				<port id="1" precision="FP32" names="/model.4/m.0/cv2/act/Mul_output_0">
					<dim>-1</dim>
					<dim>64</dim>
					<dim>-1</dim>
					<dim>-1</dim>
				</port>
			</output>
		</layer>
		<layer id="210" name="Constant_316613_compressed" type="Const" version="opset1">
			<data element_type="f16" shape="" offset="214626" size="2" />
			<output>
				<port id="0" precision="FP16" />
			</output>
		</layer>
		<layer id="211" name="Constant_316613" type="Convert" version="opset1">
			<data destination_type="f32" />
			<rt_info>
				<attribute name="decompression" version="0" />
			</rt_info>
			<input>
				<port id="0" precision="FP16" />
			</input>
			<output>
				<port id="1" precision="FP32" />
			</output>
		</layer>
		<layer id="212" name="Constant_316614_compressed" type="Const" version="opset1">
			<data element_type="f16" shape="" offset="214628" size="2" />
			<output>
				<port id="0" precision="FP16" />
			</output>
		</layer>
		<layer id="213" name="Constant_316614" type="Convert" version="opset1">
			<data destination_type="f32" />
			<rt_info>
				<attribute name="decompression" version="0" />
			</rt_info>
			<input>
				<port id="0" precision="FP16" />
			</input>
			<output>
				<port id="1" precision="FP32" />
			</output>
		</layer>
		<layer id="214" name="Constant_316615_compressed" type="Const" version="opset1">
			<data element_type="f16" shape="" offset="214630" size="2" />
			<output>
				<port id="0" precision="FP16" />
			</output>
		</layer>
		<layer id="215" name="Constant_316615" type="Convert" version="opset1">
			<data destination_type="f32" />
			<rt_info>
				<attribute name="decompression" version="0" />
			</rt_info>
			<input>
				<port id="0" precision="FP16" />
			</input>
			<output>
				<port id="1" precision="FP32" />
			</output>
		</layer>
		<layer id="216" name="Constant_316616_compressed" type="Const" version="opset1">
			<data element_type="f16" shape="" offset="214632" size="2" />
			<output>
				<port id="0" precision="FP16" />
			</output>
		</layer>
		<layer id="217" name="Constant_316616" type="Convert" version="opset1">
			<data destination_type="f32" />
			<rt_info>
				<attribute name="decompression" version="0" />
			</rt_info>
			<input>
				<port id="0" precision="FP16" />
			</input>
			<output>
				<port id="1" precision="FP32" />
			</output>
		</layer>
		<layer id="218" name="/model.4/m.0/cv2/act/Mul/fq_output_0" type="FakeQuantize" version="opset1">
			<data levels="256" auto_broadcast="numpy" />
			<input>
				<port id="0" precision="FP32">
					<dim>-1</dim>
					<dim>64</dim>
					<dim>-1</dim>
					<dim>-1</dim>
				</port>
				<port id="1" precision="FP32" />
				<port id="2" precision="FP32" />
				<port id="3" precision="FP32" />
				<port id="4" precision="FP32" />
			</input>
			<output>
				<port id="5" precision="FP32">
					<dim>-1</dim>
					<dim>64</dim>
					<dim>-1</dim>
					<dim>-1</dim>
				</port>
			</output>
		</layer>
		<layer id="219" name="/model.4/m.0/Add" type="Add" version="opset1">
			<data auto_broadcast="numpy" />
			<input>
				<port id="0" precision="FP32">
					<dim>-1</dim>
					<dim>64</dim>
					<dim>-1</dim>
					<dim>-1</dim>
				</port>
				<port id="1" precision="FP32">
					<dim>-1</dim>
					<dim>64</dim>
					<dim>-1</dim>
					<dim>-1</dim>
				</port>
			</input>
			<output>
				<port id="2" precision="FP32" names="/model.4/m.0/Add_output_0">
					<dim>-1</dim>
					<dim>64</dim>
					<dim>-1</dim>
					<dim>-1</dim>
				</port>
			</output>
		</layer>
		<layer id="220" name="Constant_316408_compressed" type="Const" version="opset1">
			<data element_type="f16" shape="" offset="214634" size="2" />
			<output>
				<port id="0" precision="FP16" />
			</output>
		</layer>
		<layer id="221" name="Constant_316408" type="Convert" version="opset1">
			<data destination_type="f32" />
			<rt_info>
				<attribute name="decompression" version="0" />
			</rt_info>
			<input>
				<port id="0" precision="FP16" />
			</input>
			<output>
				<port id="1" precision="FP32" />
			</output>
		</layer>
		<layer id="222" name="Constant_316409_compressed" type="Const" version="opset1">
			<data element_type="f16" shape="" offset="214636" size="2" />
			<output>
				<port id="0" precision="FP16" />
			</output>
		</layer>
		<layer id="223" name="Constant_316409" type="Convert" version="opset1">
			<data destination_type="f32" />
			<rt_info>
				<attribute name="decompression" version="0" />
			</rt_info>
			<input>
				<port id="0" precision="FP16" />
			</input>
			<output>
				<port id="1" precision="FP32" />
			</output>
		</layer>
		<layer id="224" name="Constant_316410_compressed" type="Const" version="opset1">
			<data element_type="f16" shape="" offset="214638" size="2" />
			<output>
				<port id="0" precision="FP16" />
			</output>
		</layer>
		<layer id="225" name="Constant_316410" type="Convert" version="opset1">
			<data destination_type="f32" />
			<rt_info>
				<attribute name="decompression" version="0" />
			</rt_info>
			<input>
				<port id="0" precision="FP16" />
			</input>
			<output>
				<port id="1" precision="FP32" />
			</output>
		</layer>
		<layer id="226" name="Constant_316411_compressed" type="Const" version="opset1">
			<data element_type="f16" shape="" offset="214640" size="2" />
			<output>
				<port id="0" precision="FP16" />
			</output>
		</layer>
		<layer id="227" name="Constant_316411" type="Convert" version="opset1">
			<data destination_type="f32" />
			<rt_info>
				<attribute name="decompression" version="0" />
			</rt_info>
			<input>
				<port id="0" precision="FP16" />
			</input>
			<output>
				<port id="1" precision="FP32" />
			</output>
		</layer>
		<layer id="228" name="/model.4/m.0/Add/fq_output_0" type="FakeQuantize" version="opset1">
			<data levels="256" auto_broadcast="numpy" />
			<input>
				<port id="0" precision="FP32">
					<dim>-1</dim>
					<dim>64</dim>
					<dim>-1</dim>
					<dim>-1</dim>
				</port>
				<port id="1" precision="FP32" />
				<port id="2" precision="FP32" />
				<port id="3" precision="FP32" />
				<port id="4" precision="FP32" />
			</input>
			<output>
				<port id="5" precision="FP32">
					<dim>-1</dim>
					<dim>64</dim>
					<dim>-1</dim>
					<dim>-1</dim>
				</port>
			</output>
		</layer>
		<layer id="229" name="model.4.m.1.cv1.conv.weight" type="Const" version="opset1">
			<data element_type="i8" shape="64, 64, 3, 3" offset="214642" size="36864" />
			<output>
				<port id="0" precision="I8">
					<dim>64</dim>
					<dim>64</dim>
					<dim>3</dim>
					<dim>3</dim>
				</port>
			</output>
		</layer>
		<layer id="230" name="Convert_548221" type="Convert" version="opset1">
			<data destination_type="f32" />
			<input>
				<port id="0" precision="I8">
					<dim>64</dim>
					<dim>64</dim>
					<dim>3</dim>
					<dim>3</dim>
				</port>
			</input>
			<output>
				<port id="1" precision="FP32">
					<dim>64</dim>
					<dim>64</dim>
					<dim>3</dim>
					<dim>3</dim>
				</port>
			</output>
		</layer>
		<layer id="231" name="Constant_548119_compressed" type="Const" version="opset1">
			<data element_type="f16" shape="64, 1, 1, 1" offset="251506" size="128" />
			<output>
				<port id="0" precision="FP16">
					<dim>64</dim>
					<dim>1</dim>
					<dim>1</dim>
					<dim>1</dim>
				</port>
			</output>
		</layer>
		<layer id="232" name="Constant_548119" type="Convert" version="opset1">
			<data destination_type="f32" />
			<rt_info>
				<attribute name="decompression" version="0" />
			</rt_info>
			<input>
				<port id="0" precision="FP16">
					<dim>64</dim>
					<dim>1</dim>
					<dim>1</dim>
					<dim>1</dim>
				</port>
			</input>
			<output>
				<port id="1" precision="FP32">
					<dim>64</dim>
					<dim>1</dim>
					<dim>1</dim>
					<dim>1</dim>
				</port>
			</output>
		</layer>
		<layer id="233" name="/model.4/m.1/cv1/conv/Conv/WithoutBiases/fq_weights_1" type="Multiply" version="opset1">
			<data auto_broadcast="numpy" />
			<input>
				<port id="0" precision="FP32">
					<dim>64</dim>
					<dim>64</dim>
					<dim>3</dim>
					<dim>3</dim>
				</port>
				<port id="1" precision="FP32">
					<dim>64</dim>
					<dim>1</dim>
					<dim>1</dim>
					<dim>1</dim>
				</port>
			</input>
			<output>
				<port id="2" precision="FP32">
					<dim>64</dim>
					<dim>64</dim>
					<dim>3</dim>
					<dim>3</dim>
				</port>
			</output>
		</layer>
		<layer id="234" name="/model.4/m.1/cv1/conv/Conv/WithoutBiases" type="Convolution" version="opset1">
			<data strides="1, 1" dilations="1, 1" pads_begin="1, 1" pads_end="1, 1" auto_pad="explicit" />
			<input>
				<port id="0" precision="FP32">
					<dim>-1</dim>
					<dim>64</dim>
					<dim>-1</dim>
					<dim>-1</dim>
				</port>
				<port id="1" precision="FP32">
					<dim>64</dim>
					<dim>64</dim>
					<dim>3</dim>
					<dim>3</dim>
				</port>
			</input>
			<output>
				<port id="2" precision="FP32">
					<dim>-1</dim>
					<dim>64</dim>
					<dim>-1</dim>
					<dim>-1</dim>
				</port>
			</output>
		</layer>
		<layer id="235" name="Reshape_319_compressed" type="Const" version="opset1">
			<data element_type="f16" shape="1, 64, 1, 1" offset="251634" size="128" />
			<output>
				<port id="0" precision="FP16">
					<dim>1</dim>
					<dim>64</dim>
					<dim>1</dim>
					<dim>1</dim>
				</port>
			</output>
		</layer>
		<layer id="236" name="Reshape_319" type="Convert" version="opset1">
			<data destination_type="f32" />
			<rt_info>
				<attribute name="decompression" version="0" />
			</rt_info>
			<input>
				<port id="0" precision="FP16">
					<dim>1</dim>
					<dim>64</dim>
					<dim>1</dim>
					<dim>1</dim>
				</port>
			</input>
			<output>
				<port id="1" precision="FP32">
					<dim>1</dim>
					<dim>64</dim>
					<dim>1</dim>
					<dim>1</dim>
				</port>
			</output>
		</layer>
		<layer id="237" name="/model.4/m.1/cv1/conv/Conv" type="Add" version="opset1">
			<data auto_broadcast="numpy" />
			<input>
				<port id="0" precision="FP32">
					<dim>-1</dim>
					<dim>64</dim>
					<dim>-1</dim>
					<dim>-1</dim>
				</port>
				<port id="1" precision="FP32">
					<dim>1</dim>
					<dim>64</dim>
					<dim>1</dim>
					<dim>1</dim>
				</port>
			</input>
			<output>
				<port id="2" precision="FP32" names="/model.4/m.1/cv1/conv/Conv_output_0">
					<dim>-1</dim>
					<dim>64</dim>
					<dim>-1</dim>
					<dim>-1</dim>
				</port>
			</output>
		</layer>
		<layer id="238" name="/model.4/m.1/cv1/act/Mul" type="Swish" version="opset4">
			<input>
				<port id="0" precision="FP32">
					<dim>-1</dim>
					<dim>64</dim>
					<dim>-1</dim>
					<dim>-1</dim>
				</port>
			</input>
			<output>
				<port id="1" precision="FP32" names="/model.4/m.1/cv1/act/Mul_output_0">
					<dim>-1</dim>
					<dim>64</dim>
					<dim>-1</dim>
					<dim>-1</dim>
				</port>
			</output>
		</layer>
		<layer id="239" name="Constant_316623_compressed" type="Const" version="opset1">
			<data element_type="f16" shape="" offset="251762" size="2" />
			<output>
				<port id="0" precision="FP16" />
			</output>
		</layer>
		<layer id="240" name="Constant_316623" type="Convert" version="opset1">
			<data destination_type="f32" />
			<rt_info>
				<attribute name="decompression" version="0" />
			</rt_info>
			<input>
				<port id="0" precision="FP16" />
			</input>
			<output>
				<port id="1" precision="FP32" />
			</output>
		</layer>
		<layer id="241" name="Constant_316624_compressed" type="Const" version="opset1">
			<data element_type="f16" shape="" offset="251764" size="2" />
			<output>
				<port id="0" precision="FP16" />
			</output>
		</layer>
		<layer id="242" name="Constant_316624" type="Convert" version="opset1">
			<data destination_type="f32" />
			<rt_info>
				<attribute name="decompression" version="0" />
			</rt_info>
			<input>
				<port id="0" precision="FP16" />
			</input>
			<output>
				<port id="1" precision="FP32" />
			</output>
		</layer>
		<layer id="243" name="Constant_316625_compressed" type="Const" version="opset1">
			<data element_type="f16" shape="" offset="251766" size="2" />
			<output>
				<port id="0" precision="FP16" />
			</output>
		</layer>
		<layer id="244" name="Constant_316625" type="Convert" version="opset1">
			<data destination_type="f32" />
			<rt_info>
				<attribute name="decompression" version="0" />
			</rt_info>
			<input>
				<port id="0" precision="FP16" />
			</input>
			<output>
				<port id="1" precision="FP32" />
			</output>
		</layer>
		<layer id="245" name="Constant_316626_compressed" type="Const" version="opset1">
			<data element_type="f16" shape="" offset="251768" size="2" />
			<output>
				<port id="0" precision="FP16" />
			</output>
		</layer>
		<layer id="246" name="Constant_316626" type="Convert" version="opset1">
			<data destination_type="f32" />
			<rt_info>
				<attribute name="decompression" version="0" />
			</rt_info>
			<input>
				<port id="0" precision="FP16" />
			</input>
			<output>
				<port id="1" precision="FP32" />
			</output>
		</layer>
		<layer id="247" name="/model.4/m.1/cv1/act/Mul/fq_output_0" type="FakeQuantize" version="opset1">
			<data levels="256" auto_broadcast="numpy" />
			<input>
				<port id="0" precision="FP32">
					<dim>-1</dim>
					<dim>64</dim>
					<dim>-1</dim>
					<dim>-1</dim>
				</port>
				<port id="1" precision="FP32" />
				<port id="2" precision="FP32" />
				<port id="3" precision="FP32" />
				<port id="4" precision="FP32" />
			</input>
			<output>
				<port id="5" precision="FP32">
					<dim>-1</dim>
					<dim>64</dim>
					<dim>-1</dim>
					<dim>-1</dim>
				</port>
			</output>
		</layer>
		<layer id="248" name="model.4.m.1.cv2.conv.weight" type="Const" version="opset1">
			<data element_type="i8" shape="64, 64, 3, 3" offset="251770" size="36864" />
			<output>
				<port id="0" precision="I8">
					<dim>64</dim>
					<dim>64</dim>
					<dim>3</dim>
					<dim>3</dim>
				</port>
			</output>
		</layer>
		<layer id="249" name="Convert_548375" type="Convert" version="opset1">
			<data destination_type="f32" />
			<input>
				<port id="0" precision="I8">
					<dim>64</dim>
					<dim>64</dim>
					<dim>3</dim>
					<dim>3</dim>
				</port>
			</input>
			<output>
				<port id="1" precision="FP32">
					<dim>64</dim>
					<dim>64</dim>
					<dim>3</dim>
					<dim>3</dim>
				</port>
			</output>
		</layer>
		<layer id="250" name="Constant_548273_compressed" type="Const" version="opset1">
			<data element_type="f16" shape="64, 1, 1, 1" offset="288634" size="128" />
			<output>
				<port id="0" precision="FP16">
					<dim>64</dim>
					<dim>1</dim>
					<dim>1</dim>
					<dim>1</dim>
				</port>
			</output>
		</layer>
		<layer id="251" name="Constant_548273" type="Convert" version="opset1">
			<data destination_type="f32" />
			<rt_info>
				<attribute name="decompression" version="0" />
			</rt_info>
			<input>
				<port id="0" precision="FP16">
					<dim>64</dim>
					<dim>1</dim>
					<dim>1</dim>
					<dim>1</dim>
				</port>
			</input>
			<output>
				<port id="1" precision="FP32">
					<dim>64</dim>
					<dim>1</dim>
					<dim>1</dim>
					<dim>1</dim>
				</port>
			</output>
		</layer>
		<layer id="252" name="/model.4/m.1/cv2/conv/Conv/WithoutBiases/fq_weights_1" type="Multiply" version="opset1">
			<data auto_broadcast="numpy" />
			<input>
				<port id="0" precision="FP32">
					<dim>64</dim>
					<dim>64</dim>
					<dim>3</dim>
					<dim>3</dim>
				</port>
				<port id="1" precision="FP32">
					<dim>64</dim>
					<dim>1</dim>
					<dim>1</dim>
					<dim>1</dim>
				</port>
			</input>
			<output>
				<port id="2" precision="FP32">
					<dim>64</dim>
					<dim>64</dim>
					<dim>3</dim>
					<dim>3</dim>
				</port>
			</output>
		</layer>
		<layer id="253" name="/model.4/m.1/cv2/conv/Conv/WithoutBiases" type="Convolution" version="opset1">
			<data strides="1, 1" dilations="1, 1" pads_begin="1, 1" pads_end="1, 1" auto_pad="explicit" />
			<input>
				<port id="0" precision="FP32">
					<dim>-1</dim>
					<dim>64</dim>
					<dim>-1</dim>
					<dim>-1</dim>
				</port>
				<port id="1" precision="FP32">
					<dim>64</dim>
					<dim>64</dim>
					<dim>3</dim>
					<dim>3</dim>
				</port>
			</input>
			<output>
				<port id="2" precision="FP32">
					<dim>-1</dim>
					<dim>64</dim>
					<dim>-1</dim>
					<dim>-1</dim>
				</port>
			</output>
		</layer>
		<layer id="254" name="Reshape_336_compressed" type="Const" version="opset1">
			<data element_type="f16" shape="1, 64, 1, 1" offset="288762" size="128" />
			<output>
				<port id="0" precision="FP16">
					<dim>1</dim>
					<dim>64</dim>
					<dim>1</dim>
					<dim>1</dim>
				</port>
			</output>
		</layer>
		<layer id="255" name="Reshape_336" type="Convert" version="opset1">
			<data destination_type="f32" />
			<rt_info>
				<attribute name="decompression" version="0" />
			</rt_info>
			<input>
				<port id="0" precision="FP16">
					<dim>1</dim>
					<dim>64</dim>
					<dim>1</dim>
					<dim>1</dim>
				</port>
			</input>
			<output>
				<port id="1" precision="FP32">
					<dim>1</dim>
					<dim>64</dim>
					<dim>1</dim>
					<dim>1</dim>
				</port>
			</output>
		</layer>
		<layer id="256" name="/model.4/m.1/cv2/conv/Conv" type="Add" version="opset1">
			<data auto_broadcast="numpy" />
			<input>
				<port id="0" precision="FP32">
					<dim>-1</dim>
					<dim>64</dim>
					<dim>-1</dim>
					<dim>-1</dim>
				</port>
				<port id="1" precision="FP32">
					<dim>1</dim>
					<dim>64</dim>
					<dim>1</dim>
					<dim>1</dim>
				</port>
			</input>
			<output>
				<port id="2" precision="FP32" names="/model.4/m.1/cv2/conv/Conv_output_0">
					<dim>-1</dim>
					<dim>64</dim>
					<dim>-1</dim>
					<dim>-1</dim>
				</port>
			</output>
		</layer>
		<layer id="257" name="/model.4/m.1/cv2/act/Mul" type="Swish" version="opset4">
			<input>
				<port id="0" precision="FP32">
					<dim>-1</dim>
					<dim>64</dim>
					<dim>-1</dim>
					<dim>-1</dim>
				</port>
			</input>
			<output>
				<port id="1" precision="FP32" names="/model.4/m.1/cv2/act/Mul_output_0">
					<dim>-1</dim>
					<dim>64</dim>
					<dim>-1</dim>
					<dim>-1</dim>
				</port>
			</output>
		</layer>
		<layer id="258" name="Constant_316633_compressed" type="Const" version="opset1">
			<data element_type="f16" shape="" offset="288890" size="2" />
			<output>
				<port id="0" precision="FP16" />
			</output>
		</layer>
		<layer id="259" name="Constant_316633" type="Convert" version="opset1">
			<data destination_type="f32" />
			<rt_info>
				<attribute name="decompression" version="0" />
			</rt_info>
			<input>
				<port id="0" precision="FP16" />
			</input>
			<output>
				<port id="1" precision="FP32" />
			</output>
		</layer>
		<layer id="260" name="Constant_316634_compressed" type="Const" version="opset1">
			<data element_type="f16" shape="" offset="288892" size="2" />
			<output>
				<port id="0" precision="FP16" />
			</output>
		</layer>
		<layer id="261" name="Constant_316634" type="Convert" version="opset1">
			<data destination_type="f32" />
			<rt_info>
				<attribute name="decompression" version="0" />
			</rt_info>
			<input>
				<port id="0" precision="FP16" />
			</input>
			<output>
				<port id="1" precision="FP32" />
			</output>
		</layer>
		<layer id="262" name="Constant_316635_compressed" type="Const" version="opset1">
			<data element_type="f16" shape="" offset="288894" size="2" />
			<output>
				<port id="0" precision="FP16" />
			</output>
		</layer>
		<layer id="263" name="Constant_316635" type="Convert" version="opset1">
			<data destination_type="f32" />
			<rt_info>
				<attribute name="decompression" version="0" />
			</rt_info>
			<input>
				<port id="0" precision="FP16" />
			</input>
			<output>
				<port id="1" precision="FP32" />
			</output>
		</layer>
		<layer id="264" name="Constant_316636_compressed" type="Const" version="opset1">
			<data element_type="f16" shape="" offset="288896" size="2" />
			<output>
				<port id="0" precision="FP16" />
			</output>
		</layer>
		<layer id="265" name="Constant_316636" type="Convert" version="opset1">
			<data destination_type="f32" />
			<rt_info>
				<attribute name="decompression" version="0" />
			</rt_info>
			<input>
				<port id="0" precision="FP16" />
			</input>
			<output>
				<port id="1" precision="FP32" />
			</output>
		</layer>
		<layer id="266" name="/model.4/m.1/cv2/act/Mul/fq_output_0" type="FakeQuantize" version="opset1">
			<data levels="256" auto_broadcast="numpy" />
			<input>
				<port id="0" precision="FP32">
					<dim>-1</dim>
					<dim>64</dim>
					<dim>-1</dim>
					<dim>-1</dim>
				</port>
				<port id="1" precision="FP32" />
				<port id="2" precision="FP32" />
				<port id="3" precision="FP32" />
				<port id="4" precision="FP32" />
			</input>
			<output>
				<port id="5" precision="FP32">
					<dim>-1</dim>
					<dim>64</dim>
					<dim>-1</dim>
					<dim>-1</dim>
				</port>
			</output>
		</layer>
		<layer id="267" name="/model.4/m.1/Add" type="Add" version="opset1">
			<data auto_broadcast="numpy" />
			<input>
				<port id="0" precision="FP32">
					<dim>-1</dim>
					<dim>64</dim>
					<dim>-1</dim>
					<dim>-1</dim>
				</port>
				<port id="1" precision="FP32">
					<dim>-1</dim>
					<dim>64</dim>
					<dim>-1</dim>
					<dim>-1</dim>
				</port>
			</input>
			<output>
				<port id="2" precision="FP32" names="/model.4/m.1/Add_output_0">
					<dim>-1</dim>
					<dim>64</dim>
					<dim>-1</dim>
					<dim>-1</dim>
				</port>
			</output>
		</layer>
		<layer id="268" name="Constant_316398_compressed" type="Const" version="opset1">
			<data element_type="f16" shape="" offset="288898" size="2" />
			<output>
				<port id="0" precision="FP16" />
			</output>
		</layer>
		<layer id="269" name="Constant_316398" type="Convert" version="opset1">
			<data destination_type="f32" />
			<rt_info>
				<attribute name="decompression" version="0" />
			</rt_info>
			<input>
				<port id="0" precision="FP16" />
			</input>
			<output>
				<port id="1" precision="FP32" />
			</output>
		</layer>
		<layer id="270" name="Constant_316399_compressed" type="Const" version="opset1">
			<data element_type="f16" shape="" offset="288900" size="2" />
			<output>
				<port id="0" precision="FP16" />
			</output>
		</layer>
		<layer id="271" name="Constant_316399" type="Convert" version="opset1">
			<data destination_type="f32" />
			<rt_info>
				<attribute name="decompression" version="0" />
			</rt_info>
			<input>
				<port id="0" precision="FP16" />
			</input>
			<output>
				<port id="1" precision="FP32" />
			</output>
		</layer>
		<layer id="272" name="Constant_316400_compressed" type="Const" version="opset1">
			<data element_type="f16" shape="" offset="288902" size="2" />
			<output>
				<port id="0" precision="FP16" />
			</output>
		</layer>
		<layer id="273" name="Constant_316400" type="Convert" version="opset1">
			<data destination_type="f32" />
			<rt_info>
				<attribute name="decompression" version="0" />
			</rt_info>
			<input>
				<port id="0" precision="FP16" />
			</input>
			<output>
				<port id="1" precision="FP32" />
			</output>
		</layer>
		<layer id="274" name="Constant_316401_compressed" type="Const" version="opset1">
			<data element_type="f16" shape="" offset="288904" size="2" />
			<output>
				<port id="0" precision="FP16" />
			</output>
		</layer>
		<layer id="275" name="Constant_316401" type="Convert" version="opset1">
			<data destination_type="f32" />
			<rt_info>
				<attribute name="decompression" version="0" />
			</rt_info>
			<input>
				<port id="0" precision="FP16" />
			</input>
			<output>
				<port id="1" precision="FP32" />
			</output>
		</layer>
		<layer id="276" name="/model.4/m.1/Add/fq_output_0" type="FakeQuantize" version="opset1">
			<data levels="256" auto_broadcast="numpy" />
			<input>
				<port id="0" precision="FP32">
					<dim>-1</dim>
					<dim>64</dim>
					<dim>-1</dim>
					<dim>-1</dim>
				</port>
				<port id="1" precision="FP32" />
				<port id="2" precision="FP32" />
				<port id="3" precision="FP32" />
				<port id="4" precision="FP32" />
			</input>
			<output>
				<port id="5" precision="FP32">
					<dim>-1</dim>
					<dim>64</dim>
					<dim>-1</dim>
					<dim>-1</dim>
				</port>
			</output>
		</layer>
		<layer id="277" name="/model.4/Concat" type="Concat" version="opset1">
			<data axis="1" />
			<input>
				<port id="0" precision="FP32">
					<dim>-1</dim>
					<dim>64</dim>
					<dim>-1</dim>
					<dim>-1</dim>
				</port>
				<port id="1" precision="FP32">
					<dim>-1</dim>
					<dim>64</dim>
					<dim>-1</dim>
					<dim>-1</dim>
				</port>
				<port id="2" precision="FP32">
					<dim>-1</dim>
					<dim>64</dim>
					<dim>-1</dim>
					<dim>-1</dim>
				</port>
				<port id="3" precision="FP32">
					<dim>-1</dim>
					<dim>64</dim>
					<dim>-1</dim>
					<dim>-1</dim>
				</port>
			</input>
			<output>
				<port id="4" precision="FP32" names="/model.4/Concat_output_0">
					<dim>-1</dim>
					<dim>256</dim>
					<dim>-1</dim>
					<dim>-1</dim>
				</port>
			</output>
		</layer>
		<layer id="278" name="model.4.cv2.conv.weight" type="Const" version="opset1">
			<data element_type="i8" shape="128, 256, 1, 1" offset="288906" size="32768" />
			<output>
				<port id="0" precision="I8">
					<dim>128</dim>
					<dim>256</dim>
					<dim>1</dim>
					<dim>1</dim>
				</port>
			</output>
		</layer>
		<layer id="279" name="Convert_548529" type="Convert" version="opset1">
			<data destination_type="f32" />
			<input>
				<port id="0" precision="I8">
					<dim>128</dim>
					<dim>256</dim>
					<dim>1</dim>
					<dim>1</dim>
				</port>
			</input>
			<output>
				<port id="1" precision="FP32">
					<dim>128</dim>
					<dim>256</dim>
					<dim>1</dim>
					<dim>1</dim>
				</port>
			</output>
		</layer>
		<layer id="280" name="Constant_548427_compressed" type="Const" version="opset1">
			<data element_type="f16" shape="128, 1, 1, 1" offset="321674" size="256" />
			<output>
				<port id="0" precision="FP16">
					<dim>128</dim>
					<dim>1</dim>
					<dim>1</dim>
					<dim>1</dim>
				</port>
			</output>
		</layer>
		<layer id="281" name="Constant_548427" type="Convert" version="opset1">
			<data destination_type="f32" />
			<rt_info>
				<attribute name="decompression" version="0" />
			</rt_info>
			<input>
				<port id="0" precision="FP16">
					<dim>128</dim>
					<dim>1</dim>
					<dim>1</dim>
					<dim>1</dim>
				</port>
			</input>
			<output>
				<port id="1" precision="FP32">
					<dim>128</dim>
					<dim>1</dim>
					<dim>1</dim>
					<dim>1</dim>
				</port>
			</output>
		</layer>
		<layer id="282" name="/model.4/cv2/conv/Conv/WithoutBiases/fq_weights_1" type="Multiply" version="opset1">
			<data auto_broadcast="numpy" />
			<input>
				<port id="0" precision="FP32">
					<dim>128</dim>
					<dim>256</dim>
					<dim>1</dim>
					<dim>1</dim>
				</port>
				<port id="1" precision="FP32">
					<dim>128</dim>
					<dim>1</dim>
					<dim>1</dim>
					<dim>1</dim>
				</port>
			</input>
			<output>
				<port id="2" precision="FP32">
					<dim>128</dim>
					<dim>256</dim>
					<dim>1</dim>
					<dim>1</dim>
				</port>
			</output>
		</layer>
		<layer id="283" name="/model.4/cv2/conv/Conv/WithoutBiases" type="Convolution" version="opset1">
			<data strides="1, 1" dilations="1, 1" pads_begin="0, 0" pads_end="0, 0" auto_pad="explicit" />
			<input>
				<port id="0" precision="FP32">
					<dim>-1</dim>
					<dim>256</dim>
					<dim>-1</dim>
					<dim>-1</dim>
				</port>
				<port id="1" precision="FP32">
					<dim>128</dim>
					<dim>256</dim>
					<dim>1</dim>
					<dim>1</dim>
				</port>
			</input>
			<output>
				<port id="2" precision="FP32">
					<dim>-1</dim>
					<dim>128</dim>
					<dim>-1</dim>
					<dim>-1</dim>
				</port>
			</output>
		</layer>
		<layer id="284" name="Reshape_355_compressed" type="Const" version="opset1">
			<data element_type="f16" shape="1, 128, 1, 1" offset="321930" size="256" />
			<output>
				<port id="0" precision="FP16">
					<dim>1</dim>
					<dim>128</dim>
					<dim>1</dim>
					<dim>1</dim>
				</port>
			</output>
		</layer>
		<layer id="285" name="Reshape_355" type="Convert" version="opset1">
			<data destination_type="f32" />
			<rt_info>
				<attribute name="decompression" version="0" />
			</rt_info>
			<input>
				<port id="0" precision="FP16">
					<dim>1</dim>
					<dim>128</dim>
					<dim>1</dim>
					<dim>1</dim>
				</port>
			</input>
			<output>
				<port id="1" precision="FP32">
					<dim>1</dim>
					<dim>128</dim>
					<dim>1</dim>
					<dim>1</dim>
				</port>
			</output>
		</layer>
		<layer id="286" name="/model.4/cv2/conv/Conv" type="Add" version="opset1">
			<data auto_broadcast="numpy" />
			<input>
				<port id="0" precision="FP32">
					<dim>-1</dim>
					<dim>128</dim>
					<dim>-1</dim>
					<dim>-1</dim>
				</port>
				<port id="1" precision="FP32">
					<dim>1</dim>
					<dim>128</dim>
					<dim>1</dim>
					<dim>1</dim>
				</port>
			</input>
			<output>
				<port id="2" precision="FP32" names="/model.4/cv2/conv/Conv_output_0">
					<dim>-1</dim>
					<dim>128</dim>
					<dim>-1</dim>
					<dim>-1</dim>
				</port>
			</output>
		</layer>
		<layer id="287" name="/model.4/cv2/act/Mul" type="Swish" version="opset4">
			<input>
				<port id="0" precision="FP32">
					<dim>-1</dim>
					<dim>128</dim>
					<dim>-1</dim>
					<dim>-1</dim>
				</port>
			</input>
			<output>
				<port id="1" precision="FP32" names="/model.4/cv2/act/Mul_output_0">
					<dim>-1</dim>
					<dim>128</dim>
					<dim>-1</dim>
					<dim>-1</dim>
				</port>
			</output>
		</layer>
		<layer id="288" name="Constant_316413_compressed" type="Const" version="opset1">
			<data element_type="f16" shape="" offset="322186" size="2" />
			<output>
				<port id="0" precision="FP16" />
			</output>
		</layer>
		<layer id="289" name="Constant_316413" type="Convert" version="opset1">
			<data destination_type="f32" />
			<rt_info>
				<attribute name="decompression" version="0" />
			</rt_info>
			<input>
				<port id="0" precision="FP16" />
			</input>
			<output>
				<port id="1" precision="FP32" />
			</output>
		</layer>
		<layer id="290" name="Constant_316414_compressed" type="Const" version="opset1">
			<data element_type="f16" shape="" offset="322188" size="2" />
			<output>
				<port id="0" precision="FP16" />
			</output>
		</layer>
		<layer id="291" name="Constant_316414" type="Convert" version="opset1">
			<data destination_type="f32" />
			<rt_info>
				<attribute name="decompression" version="0" />
			</rt_info>
			<input>
				<port id="0" precision="FP16" />
			</input>
			<output>
				<port id="1" precision="FP32" />
			</output>
		</layer>
		<layer id="292" name="Constant_316415_compressed" type="Const" version="opset1">
			<data element_type="f16" shape="" offset="322190" size="2" />
			<output>
				<port id="0" precision="FP16" />
			</output>
		</layer>
		<layer id="293" name="Constant_316415" type="Convert" version="opset1">
			<data destination_type="f32" />
			<rt_info>
				<attribute name="decompression" version="0" />
			</rt_info>
			<input>
				<port id="0" precision="FP16" />
			</input>
			<output>
				<port id="1" precision="FP32" />
			</output>
		</layer>
		<layer id="294" name="Constant_316416_compressed" type="Const" version="opset1">
			<data element_type="f16" shape="" offset="322192" size="2" />
			<output>
				<port id="0" precision="FP16" />
			</output>
		</layer>
		<layer id="295" name="Constant_316416" type="Convert" version="opset1">
			<data destination_type="f32" />
			<rt_info>
				<attribute name="decompression" version="0" />
			</rt_info>
			<input>
				<port id="0" precision="FP16" />
			</input>
			<output>
				<port id="1" precision="FP32" />
			</output>
		</layer>
		<layer id="296" name="/model.4/cv2/act/Mul/fq_output_0" type="FakeQuantize" version="opset1">
			<data levels="256" auto_broadcast="numpy" />
			<input>
				<port id="0" precision="FP32">
					<dim>-1</dim>
					<dim>128</dim>
					<dim>-1</dim>
					<dim>-1</dim>
				</port>
				<port id="1" precision="FP32" />
				<port id="2" precision="FP32" />
				<port id="3" precision="FP32" />
				<port id="4" precision="FP32" />
			</input>
			<output>
				<port id="5" precision="FP32">
					<dim>-1</dim>
					<dim>128</dim>
					<dim>-1</dim>
					<dim>-1</dim>
				</port>
			</output>
		</layer>
		<layer id="297" name="model.5.conv.weight" type="Const" version="opset1">
			<data element_type="i8" shape="256, 128, 3, 3" offset="322194" size="294912" />
			<output>
				<port id="0" precision="I8">
					<dim>256</dim>
					<dim>128</dim>
					<dim>3</dim>
					<dim>3</dim>
				</port>
			</output>
		</layer>
		<layer id="298" name="Convert_548683" type="Convert" version="opset1">
			<data destination_type="f32" />
			<input>
				<port id="0" precision="I8">
					<dim>256</dim>
					<dim>128</dim>
					<dim>3</dim>
					<dim>3</dim>
				</port>
			</input>
			<output>
				<port id="1" precision="FP32">
					<dim>256</dim>
					<dim>128</dim>
					<dim>3</dim>
					<dim>3</dim>
				</port>
			</output>
		</layer>
		<layer id="299" name="Constant_548581_compressed" type="Const" version="opset1">
			<data element_type="f16" shape="256, 1, 1, 1" offset="617106" size="512" />
			<output>
				<port id="0" precision="FP16">
					<dim>256</dim>
					<dim>1</dim>
					<dim>1</dim>
					<dim>1</dim>
				</port>
			</output>
		</layer>
		<layer id="300" name="Constant_548581" type="Convert" version="opset1">
			<data destination_type="f32" />
			<rt_info>
				<attribute name="decompression" version="0" />
			</rt_info>
			<input>
				<port id="0" precision="FP16">
					<dim>256</dim>
					<dim>1</dim>
					<dim>1</dim>
					<dim>1</dim>
				</port>
			</input>
			<output>
				<port id="1" precision="FP32">
					<dim>256</dim>
					<dim>1</dim>
					<dim>1</dim>
					<dim>1</dim>
				</port>
			</output>
		</layer>
		<layer id="301" name="/model.5/conv/Conv/WithoutBiases/fq_weights_1" type="Multiply" version="opset1">
			<data auto_broadcast="numpy" />
			<input>
				<port id="0" precision="FP32">
					<dim>256</dim>
					<dim>128</dim>
					<dim>3</dim>
					<dim>3</dim>
				</port>
				<port id="1" precision="FP32">
					<dim>256</dim>
					<dim>1</dim>
					<dim>1</dim>
					<dim>1</dim>
				</port>
			</input>
			<output>
				<port id="2" precision="FP32">
					<dim>256</dim>
					<dim>128</dim>
					<dim>3</dim>
					<dim>3</dim>
				</port>
			</output>
		</layer>
		<layer id="302" name="/model.5/conv/Conv/WithoutBiases" type="Convolution" version="opset1">
			<data strides="2, 2" dilations="1, 1" pads_begin="1, 1" pads_end="1, 1" auto_pad="explicit" />
			<input>
				<port id="0" precision="FP32">
					<dim>-1</dim>
					<dim>128</dim>
					<dim>-1</dim>
					<dim>-1</dim>
				</port>
				<port id="1" precision="FP32">
					<dim>256</dim>
					<dim>128</dim>
					<dim>3</dim>
					<dim>3</dim>
				</port>
			</input>
			<output>
				<port id="2" precision="FP32">
					<dim>-1</dim>
					<dim>256</dim>
					<dim>-1</dim>
					<dim>-1</dim>
				</port>
			</output>
		</layer>
		<layer id="303" name="Reshape_372_compressed" type="Const" version="opset1">
			<data element_type="f16" shape="1, 256, 1, 1" offset="617618" size="512" />
			<output>
				<port id="0" precision="FP16">
					<dim>1</dim>
					<dim>256</dim>
					<dim>1</dim>
					<dim>1</dim>
				</port>
			</output>
		</layer>
		<layer id="304" name="Reshape_372" type="Convert" version="opset1">
			<data destination_type="f32" />
			<rt_info>
				<attribute name="decompression" version="0" />
			</rt_info>
			<input>
				<port id="0" precision="FP16">
					<dim>1</dim>
					<dim>256</dim>
					<dim>1</dim>
					<dim>1</dim>
				</port>
			</input>
			<output>
				<port id="1" precision="FP32">
					<dim>1</dim>
					<dim>256</dim>
					<dim>1</dim>
					<dim>1</dim>
				</port>
			</output>
		</layer>
		<layer id="305" name="/model.5/conv/Conv" type="Add" version="opset1">
			<data auto_broadcast="numpy" />
			<input>
				<port id="0" precision="FP32">
					<dim>-1</dim>
					<dim>256</dim>
					<dim>-1</dim>
					<dim>-1</dim>
				</port>
				<port id="1" precision="FP32">
					<dim>1</dim>
					<dim>256</dim>
					<dim>1</dim>
					<dim>1</dim>
				</port>
			</input>
			<output>
				<port id="2" precision="FP32" names="/model.5/conv/Conv_output_0">
					<dim>-1</dim>
					<dim>256</dim>
					<dim>-1</dim>
					<dim>-1</dim>
				</port>
			</output>
		</layer>
		<layer id="306" name="/model.5/act/Mul" type="Swish" version="opset4">
			<input>
				<port id="0" precision="FP32">
					<dim>-1</dim>
					<dim>256</dim>
					<dim>-1</dim>
					<dim>-1</dim>
				</port>
			</input>
			<output>
				<port id="1" precision="FP32" names="/model.5/act/Mul_output_0">
					<dim>-1</dim>
					<dim>256</dim>
					<dim>-1</dim>
					<dim>-1</dim>
				</port>
			</output>
		</layer>
		<layer id="307" name="Constant_316648_compressed" type="Const" version="opset1">
			<data element_type="f16" shape="" offset="618130" size="2" />
			<output>
				<port id="0" precision="FP16" />
			</output>
		</layer>
		<layer id="308" name="Constant_316648" type="Convert" version="opset1">
			<data destination_type="f32" />
			<rt_info>
				<attribute name="decompression" version="0" />
			</rt_info>
			<input>
				<port id="0" precision="FP16" />
			</input>
			<output>
				<port id="1" precision="FP32" />
			</output>
		</layer>
		<layer id="309" name="Constant_316649_compressed" type="Const" version="opset1">
			<data element_type="f16" shape="" offset="618132" size="2" />
			<output>
				<port id="0" precision="FP16" />
			</output>
		</layer>
		<layer id="310" name="Constant_316649" type="Convert" version="opset1">
			<data destination_type="f32" />
			<rt_info>
				<attribute name="decompression" version="0" />
			</rt_info>
			<input>
				<port id="0" precision="FP16" />
			</input>
			<output>
				<port id="1" precision="FP32" />
			</output>
		</layer>
		<layer id="311" name="Constant_316650_compressed" type="Const" version="opset1">
			<data element_type="f16" shape="" offset="618134" size="2" />
			<output>
				<port id="0" precision="FP16" />
			</output>
		</layer>
		<layer id="312" name="Constant_316650" type="Convert" version="opset1">
			<data destination_type="f32" />
			<rt_info>
				<attribute name="decompression" version="0" />
			</rt_info>
			<input>
				<port id="0" precision="FP16" />
			</input>
			<output>
				<port id="1" precision="FP32" />
			</output>
		</layer>
		<layer id="313" name="Constant_316651_compressed" type="Const" version="opset1">
			<data element_type="f16" shape="" offset="618136" size="2" />
			<output>
				<port id="0" precision="FP16" />
			</output>
		</layer>
		<layer id="314" name="Constant_316651" type="Convert" version="opset1">
			<data destination_type="f32" />
			<rt_info>
				<attribute name="decompression" version="0" />
			</rt_info>
			<input>
				<port id="0" precision="FP16" />
			</input>
			<output>
				<port id="1" precision="FP32" />
			</output>
		</layer>
		<layer id="315" name="/model.5/act/Mul/fq_output_0" type="FakeQuantize" version="opset1">
			<data levels="256" auto_broadcast="numpy" />
			<input>
				<port id="0" precision="FP32">
					<dim>-1</dim>
					<dim>256</dim>
					<dim>-1</dim>
					<dim>-1</dim>
				</port>
				<port id="1" precision="FP32" />
				<port id="2" precision="FP32" />
				<port id="3" precision="FP32" />
				<port id="4" precision="FP32" />
			</input>
			<output>
				<port id="5" precision="FP32">
					<dim>-1</dim>
					<dim>256</dim>
					<dim>-1</dim>
					<dim>-1</dim>
				</port>
			</output>
		</layer>
		<layer id="316" name="model.6.cv1.conv.weight" type="Const" version="opset1">
			<data element_type="i8" shape="256, 256, 1, 1" offset="618138" size="65536" />
			<output>
				<port id="0" precision="I8">
					<dim>256</dim>
					<dim>256</dim>
					<dim>1</dim>
					<dim>1</dim>
				</port>
			</output>
		</layer>
		<layer id="317" name="Convert_548837" type="Convert" version="opset1">
			<data destination_type="f32" />
			<input>
				<port id="0" precision="I8">
					<dim>256</dim>
					<dim>256</dim>
					<dim>1</dim>
					<dim>1</dim>
				</port>
			</input>
			<output>
				<port id="1" precision="FP32">
					<dim>256</dim>
					<dim>256</dim>
					<dim>1</dim>
					<dim>1</dim>
				</port>
			</output>
		</layer>
		<layer id="318" name="Constant_548735_compressed" type="Const" version="opset1">
			<data element_type="f16" shape="256, 1, 1, 1" offset="683674" size="512" />
			<output>
				<port id="0" precision="FP16">
					<dim>256</dim>
					<dim>1</dim>
					<dim>1</dim>
					<dim>1</dim>
				</port>
			</output>
		</layer>
		<layer id="319" name="Constant_548735" type="Convert" version="opset1">
			<data destination_type="f32" />
			<rt_info>
				<attribute name="decompression" version="0" />
			</rt_info>
			<input>
				<port id="0" precision="FP16">
					<dim>256</dim>
					<dim>1</dim>
					<dim>1</dim>
					<dim>1</dim>
				</port>
			</input>
			<output>
				<port id="1" precision="FP32">
					<dim>256</dim>
					<dim>1</dim>
					<dim>1</dim>
					<dim>1</dim>
				</port>
			</output>
		</layer>
		<layer id="320" name="/model.6/cv1/conv/Conv/WithoutBiases/fq_weights_1" type="Multiply" version="opset1">
			<data auto_broadcast="numpy" />
			<input>
				<port id="0" precision="FP32">
					<dim>256</dim>
					<dim>256</dim>
					<dim>1</dim>
					<dim>1</dim>
				</port>
				<port id="1" precision="FP32">
					<dim>256</dim>
					<dim>1</dim>
					<dim>1</dim>
					<dim>1</dim>
				</port>
			</input>
			<output>
				<port id="2" precision="FP32">
					<dim>256</dim>
					<dim>256</dim>
					<dim>1</dim>
					<dim>1</dim>
				</port>
			</output>
		</layer>
		<layer id="321" name="/model.6/cv1/conv/Conv/WithoutBiases" type="Convolution" version="opset1">
			<data strides="1, 1" dilations="1, 1" pads_begin="0, 0" pads_end="0, 0" auto_pad="explicit" />
			<input>
				<port id="0" precision="FP32">
					<dim>-1</dim>
					<dim>256</dim>
					<dim>-1</dim>
					<dim>-1</dim>
				</port>
				<port id="1" precision="FP32">
					<dim>256</dim>
					<dim>256</dim>
					<dim>1</dim>
					<dim>1</dim>
				</port>
			</input>
			<output>
				<port id="2" precision="FP32">
					<dim>-1</dim>
					<dim>256</dim>
					<dim>-1</dim>
					<dim>-1</dim>
				</port>
			</output>
		</layer>
		<layer id="322" name="Reshape_389_compressed" type="Const" version="opset1">
			<data element_type="f16" shape="1, 256, 1, 1" offset="684186" size="512" />
			<output>
				<port id="0" precision="FP16">
					<dim>1</dim>
					<dim>256</dim>
					<dim>1</dim>
					<dim>1</dim>
				</port>
			</output>
		</layer>
		<layer id="323" name="Reshape_389" type="Convert" version="opset1">
			<data destination_type="f32" />
			<rt_info>
				<attribute name="decompression" version="0" />
			</rt_info>
			<input>
				<port id="0" precision="FP16">
					<dim>1</dim>
					<dim>256</dim>
					<dim>1</dim>
					<dim>1</dim>
				</port>
			</input>
			<output>
				<port id="1" precision="FP32">
					<dim>1</dim>
					<dim>256</dim>
					<dim>1</dim>
					<dim>1</dim>
				</port>
			</output>
		</layer>
		<layer id="324" name="/model.6/cv1/conv/Conv" type="Add" version="opset1">
			<data auto_broadcast="numpy" />
			<input>
				<port id="0" precision="FP32">
					<dim>-1</dim>
					<dim>256</dim>
					<dim>-1</dim>
					<dim>-1</dim>
				</port>
				<port id="1" precision="FP32">
					<dim>1</dim>
					<dim>256</dim>
					<dim>1</dim>
					<dim>1</dim>
				</port>
			</input>
			<output>
				<port id="2" precision="FP32" names="/model.6/cv1/conv/Conv_output_0">
					<dim>-1</dim>
					<dim>256</dim>
					<dim>-1</dim>
					<dim>-1</dim>
				</port>
			</output>
		</layer>
		<layer id="325" name="/model.6/cv1/act/Mul" type="Swish" version="opset4">
			<input>
				<port id="0" precision="FP32">
					<dim>-1</dim>
					<dim>256</dim>
					<dim>-1</dim>
					<dim>-1</dim>
				</port>
			</input>
			<output>
				<port id="1" precision="FP32" names="/model.6/cv1/act/Mul_output_0">
					<dim>-1</dim>
					<dim>256</dim>
					<dim>-1</dim>
					<dim>-1</dim>
				</port>
			</output>
		</layer>
		<layer id="326" name="Constant_316423_compressed" type="Const" version="opset1">
			<data element_type="f16" shape="" offset="684698" size="2" />
			<output>
				<port id="0" precision="FP16" />
			</output>
		</layer>
		<layer id="327" name="Constant_316423" type="Convert" version="opset1">
			<data destination_type="f32" />
			<rt_info>
				<attribute name="decompression" version="0" />
			</rt_info>
			<input>
				<port id="0" precision="FP16" />
			</input>
			<output>
				<port id="1" precision="FP32" />
			</output>
		</layer>
		<layer id="328" name="Constant_316424_compressed" type="Const" version="opset1">
			<data element_type="f16" shape="" offset="684700" size="2" />
			<output>
				<port id="0" precision="FP16" />
			</output>
		</layer>
		<layer id="329" name="Constant_316424" type="Convert" version="opset1">
			<data destination_type="f32" />
			<rt_info>
				<attribute name="decompression" version="0" />
			</rt_info>
			<input>
				<port id="0" precision="FP16" />
			</input>
			<output>
				<port id="1" precision="FP32" />
			</output>
		</layer>
		<layer id="330" name="Constant_316425_compressed" type="Const" version="opset1">
			<data element_type="f16" shape="" offset="684702" size="2" />
			<output>
				<port id="0" precision="FP16" />
			</output>
		</layer>
		<layer id="331" name="Constant_316425" type="Convert" version="opset1">
			<data destination_type="f32" />
			<rt_info>
				<attribute name="decompression" version="0" />
			</rt_info>
			<input>
				<port id="0" precision="FP16" />
			</input>
			<output>
				<port id="1" precision="FP32" />
			</output>
		</layer>
		<layer id="332" name="Constant_316426_compressed" type="Const" version="opset1">
			<data element_type="f16" shape="" offset="684704" size="2" />
			<output>
				<port id="0" precision="FP16" />
			</output>
		</layer>
		<layer id="333" name="Constant_316426" type="Convert" version="opset1">
			<data destination_type="f32" />
			<rt_info>
				<attribute name="decompression" version="0" />
			</rt_info>
			<input>
				<port id="0" precision="FP16" />
			</input>
			<output>
				<port id="1" precision="FP32" />
			</output>
		</layer>
		<layer id="334" name="/model.6/cv1/act/Mul/fq_output_0" type="FakeQuantize" version="opset1">
			<data levels="256" auto_broadcast="numpy" />
			<input>
				<port id="0" precision="FP32">
					<dim>-1</dim>
					<dim>256</dim>
					<dim>-1</dim>
					<dim>-1</dim>
				</port>
				<port id="1" precision="FP32" />
				<port id="2" precision="FP32" />
				<port id="3" precision="FP32" />
				<port id="4" precision="FP32" />
			</input>
			<output>
				<port id="5" precision="FP32">
					<dim>-1</dim>
					<dim>256</dim>
					<dim>-1</dim>
					<dim>-1</dim>
				</port>
			</output>
		</layer>
		<layer id="335" name="Constant_396" type="Const" version="opset1">
			<data element_type="i64" shape="" offset="24066" size="8" />
			<output>
				<port id="0" precision="I64" />
			</output>
		</layer>
		<layer id="336" name="Constant_54" type="Const" version="opset1">
			<data element_type="i64" shape="2" offset="684706" size="16" />
			<output>
				<port id="0" precision="I64" names="onnx::Split_185">
					<dim>2</dim>
				</port>
			</output>
		</layer>
		<layer id="337" name="/model.6/Split" type="VariadicSplit" version="opset1">
			<input>
				<port id="0" precision="FP32">
					<dim>-1</dim>
					<dim>256</dim>
					<dim>-1</dim>
					<dim>-1</dim>
				</port>
				<port id="1" precision="I64" />
				<port id="2" precision="I64">
					<dim>2</dim>
				</port>
			</input>
			<output>
				<port id="3" precision="FP32" names="/model.6/Split_output_0">
					<dim>-1</dim>
					<dim>128</dim>
					<dim>-1</dim>
					<dim>-1</dim>
				</port>
				<port id="4" precision="FP32" names="/model.6/Split_output_1">
					<dim>-1</dim>
					<dim>128</dim>
					<dim>-1</dim>
					<dim>-1</dim>
				</port>
			</output>
		</layer>
		<layer id="338" name="model.6.m.0.cv1.conv.weight" type="Const" version="opset1">
			<data element_type="i8" shape="128, 128, 3, 3" offset="684722" size="147456" />
			<output>
				<port id="0" precision="I8">
					<dim>128</dim>
					<dim>128</dim>
					<dim>3</dim>
					<dim>3</dim>
				</port>
			</output>
		</layer>
		<layer id="339" name="Convert_548991" type="Convert" version="opset1">
			<data destination_type="f32" />
			<input>
				<port id="0" precision="I8">
					<dim>128</dim>
					<dim>128</dim>
					<dim>3</dim>
					<dim>3</dim>
				</port>
			</input>
			<output>
				<port id="1" precision="FP32">
					<dim>128</dim>
					<dim>128</dim>
					<dim>3</dim>
					<dim>3</dim>
				</port>
			</output>
		</layer>
		<layer id="340" name="Constant_548889_compressed" type="Const" version="opset1">
			<data element_type="f16" shape="128, 1, 1, 1" offset="832178" size="256" />
			<output>
				<port id="0" precision="FP16">
					<dim>128</dim>
					<dim>1</dim>
					<dim>1</dim>
					<dim>1</dim>
				</port>
			</output>
		</layer>
		<layer id="341" name="Constant_548889" type="Convert" version="opset1">
			<data destination_type="f32" />
			<rt_info>
				<attribute name="decompression" version="0" />
			</rt_info>
			<input>
				<port id="0" precision="FP16">
					<dim>128</dim>
					<dim>1</dim>
					<dim>1</dim>
					<dim>1</dim>
				</port>
			</input>
			<output>
				<port id="1" precision="FP32">
					<dim>128</dim>
					<dim>1</dim>
					<dim>1</dim>
					<dim>1</dim>
				</port>
			</output>
		</layer>
		<layer id="342" name="/model.6/m.0/cv1/conv/Conv/WithoutBiases/fq_weights_1" type="Multiply" version="opset1">
			<data auto_broadcast="numpy" />
			<input>
				<port id="0" precision="FP32">
					<dim>128</dim>
					<dim>128</dim>
					<dim>3</dim>
					<dim>3</dim>
				</port>
				<port id="1" precision="FP32">
					<dim>128</dim>
					<dim>1</dim>
					<dim>1</dim>
					<dim>1</dim>
				</port>
			</input>
			<output>
				<port id="2" precision="FP32">
					<dim>128</dim>
					<dim>128</dim>
					<dim>3</dim>
					<dim>3</dim>
				</port>
			</output>
		</layer>
		<layer id="343" name="/model.6/m.0/cv1/conv/Conv/WithoutBiases" type="Convolution" version="opset1">
			<data strides="1, 1" dilations="1, 1" pads_begin="1, 1" pads_end="1, 1" auto_pad="explicit" />
			<input>
				<port id="0" precision="FP32">
					<dim>-1</dim>
					<dim>128</dim>
					<dim>-1</dim>
					<dim>-1</dim>
				</port>
				<port id="1" precision="FP32">
					<dim>128</dim>
					<dim>128</dim>
					<dim>3</dim>
					<dim>3</dim>
				</port>
			</input>
			<output>
				<port id="2" precision="FP32">
					<dim>-1</dim>
					<dim>128</dim>
					<dim>-1</dim>
					<dim>-1</dim>
				</port>
			</output>
		</layer>
		<layer id="344" name="Reshape_409_compressed" type="Const" version="opset1">
			<data element_type="f16" shape="1, 128, 1, 1" offset="832434" size="256" />
			<output>
				<port id="0" precision="FP16">
					<dim>1</dim>
					<dim>128</dim>
					<dim>1</dim>
					<dim>1</dim>
				</port>
			</output>
		</layer>
		<layer id="345" name="Reshape_409" type="Convert" version="opset1">
			<data destination_type="f32" />
			<rt_info>
				<attribute name="decompression" version="0" />
			</rt_info>
			<input>
				<port id="0" precision="FP16">
					<dim>1</dim>
					<dim>128</dim>
					<dim>1</dim>
					<dim>1</dim>
				</port>
			</input>
			<output>
				<port id="1" precision="FP32">
					<dim>1</dim>
					<dim>128</dim>
					<dim>1</dim>
					<dim>1</dim>
				</port>
			</output>
		</layer>
		<layer id="346" name="/model.6/m.0/cv1/conv/Conv" type="Add" version="opset1">
			<data auto_broadcast="numpy" />
			<input>
				<port id="0" precision="FP32">
					<dim>-1</dim>
					<dim>128</dim>
					<dim>-1</dim>
					<dim>-1</dim>
				</port>
				<port id="1" precision="FP32">
					<dim>1</dim>
					<dim>128</dim>
					<dim>1</dim>
					<dim>1</dim>
				</port>
			</input>
			<output>
				<port id="2" precision="FP32" names="/model.6/m.0/cv1/conv/Conv_output_0">
					<dim>-1</dim>
					<dim>128</dim>
					<dim>-1</dim>
					<dim>-1</dim>
				</port>
			</output>
		</layer>
		<layer id="347" name="/model.6/m.0/cv1/act/Mul" type="Swish" version="opset4">
			<input>
				<port id="0" precision="FP32">
					<dim>-1</dim>
					<dim>128</dim>
					<dim>-1</dim>
					<dim>-1</dim>
				</port>
			</input>
			<output>
				<port id="1" precision="FP32" names="/model.6/m.0/cv1/act/Mul_output_0">
					<dim>-1</dim>
					<dim>128</dim>
					<dim>-1</dim>
					<dim>-1</dim>
				</port>
			</output>
		</layer>
		<layer id="348" name="Constant_316663_compressed" type="Const" version="opset1">
			<data element_type="f16" shape="" offset="832690" size="2" />
			<output>
				<port id="0" precision="FP16" />
			</output>
		</layer>
		<layer id="349" name="Constant_316663" type="Convert" version="opset1">
			<data destination_type="f32" />
			<rt_info>
				<attribute name="decompression" version="0" />
			</rt_info>
			<input>
				<port id="0" precision="FP16" />
			</input>
			<output>
				<port id="1" precision="FP32" />
			</output>
		</layer>
		<layer id="350" name="Constant_316664_compressed" type="Const" version="opset1">
			<data element_type="f16" shape="" offset="832692" size="2" />
			<output>
				<port id="0" precision="FP16" />
			</output>
		</layer>
		<layer id="351" name="Constant_316664" type="Convert" version="opset1">
			<data destination_type="f32" />
			<rt_info>
				<attribute name="decompression" version="0" />
			</rt_info>
			<input>
				<port id="0" precision="FP16" />
			</input>
			<output>
				<port id="1" precision="FP32" />
			</output>
		</layer>
		<layer id="352" name="Constant_316665_compressed" type="Const" version="opset1">
			<data element_type="f16" shape="" offset="832694" size="2" />
			<output>
				<port id="0" precision="FP16" />
			</output>
		</layer>
		<layer id="353" name="Constant_316665" type="Convert" version="opset1">
			<data destination_type="f32" />
			<rt_info>
				<attribute name="decompression" version="0" />
			</rt_info>
			<input>
				<port id="0" precision="FP16" />
			</input>
			<output>
				<port id="1" precision="FP32" />
			</output>
		</layer>
		<layer id="354" name="Constant_316666_compressed" type="Const" version="opset1">
			<data element_type="f16" shape="" offset="832696" size="2" />
			<output>
				<port id="0" precision="FP16" />
			</output>
		</layer>
		<layer id="355" name="Constant_316666" type="Convert" version="opset1">
			<data destination_type="f32" />
			<rt_info>
				<attribute name="decompression" version="0" />
			</rt_info>
			<input>
				<port id="0" precision="FP16" />
			</input>
			<output>
				<port id="1" precision="FP32" />
			</output>
		</layer>
		<layer id="356" name="/model.6/m.0/cv1/act/Mul/fq_output_0" type="FakeQuantize" version="opset1">
			<data levels="256" auto_broadcast="numpy" />
			<input>
				<port id="0" precision="FP32">
					<dim>-1</dim>
					<dim>128</dim>
					<dim>-1</dim>
					<dim>-1</dim>
				</port>
				<port id="1" precision="FP32" />
				<port id="2" precision="FP32" />
				<port id="3" precision="FP32" />
				<port id="4" precision="FP32" />
			</input>
			<output>
				<port id="5" precision="FP32">
					<dim>-1</dim>
					<dim>128</dim>
					<dim>-1</dim>
					<dim>-1</dim>
				</port>
			</output>
		</layer>
		<layer id="357" name="model.6.m.0.cv2.conv.weight" type="Const" version="opset1">
			<data element_type="i8" shape="128, 128, 3, 3" offset="832698" size="147456" />
			<output>
				<port id="0" precision="I8">
					<dim>128</dim>
					<dim>128</dim>
					<dim>3</dim>
					<dim>3</dim>
				</port>
			</output>
		</layer>
		<layer id="358" name="Convert_549145" type="Convert" version="opset1">
			<data destination_type="f32" />
			<input>
				<port id="0" precision="I8">
					<dim>128</dim>
					<dim>128</dim>
					<dim>3</dim>
					<dim>3</dim>
				</port>
			</input>
			<output>
				<port id="1" precision="FP32">
					<dim>128</dim>
					<dim>128</dim>
					<dim>3</dim>
					<dim>3</dim>
				</port>
			</output>
		</layer>
		<layer id="359" name="Constant_549043_compressed" type="Const" version="opset1">
			<data element_type="f16" shape="128, 1, 1, 1" offset="980154" size="256" />
			<output>
				<port id="0" precision="FP16">
					<dim>128</dim>
					<dim>1</dim>
					<dim>1</dim>
					<dim>1</dim>
				</port>
			</output>
		</layer>
		<layer id="360" name="Constant_549043" type="Convert" version="opset1">
			<data destination_type="f32" />
			<rt_info>
				<attribute name="decompression" version="0" />
			</rt_info>
			<input>
				<port id="0" precision="FP16">
					<dim>128</dim>
					<dim>1</dim>
					<dim>1</dim>
					<dim>1</dim>
				</port>
			</input>
			<output>
				<port id="1" precision="FP32">
					<dim>128</dim>
					<dim>1</dim>
					<dim>1</dim>
					<dim>1</dim>
				</port>
			</output>
		</layer>
		<layer id="361" name="/model.6/m.0/cv2/conv/Conv/WithoutBiases/fq_weights_1" type="Multiply" version="opset1">
			<data auto_broadcast="numpy" />
			<input>
				<port id="0" precision="FP32">
					<dim>128</dim>
					<dim>128</dim>
					<dim>3</dim>
					<dim>3</dim>
				</port>
				<port id="1" precision="FP32">
					<dim>128</dim>
					<dim>1</dim>
					<dim>1</dim>
					<dim>1</dim>
				</port>
			</input>
			<output>
				<port id="2" precision="FP32">
					<dim>128</dim>
					<dim>128</dim>
					<dim>3</dim>
					<dim>3</dim>
				</port>
			</output>
		</layer>
		<layer id="362" name="/model.6/m.0/cv2/conv/Conv/WithoutBiases" type="Convolution" version="opset1">
			<data strides="1, 1" dilations="1, 1" pads_begin="1, 1" pads_end="1, 1" auto_pad="explicit" />
			<input>
				<port id="0" precision="FP32">
					<dim>-1</dim>
					<dim>128</dim>
					<dim>-1</dim>
					<dim>-1</dim>
				</port>
				<port id="1" precision="FP32">
					<dim>128</dim>
					<dim>128</dim>
					<dim>3</dim>
					<dim>3</dim>
				</port>
			</input>
			<output>
				<port id="2" precision="FP32">
					<dim>-1</dim>
					<dim>128</dim>
					<dim>-1</dim>
					<dim>-1</dim>
				</port>
			</output>
		</layer>
		<layer id="363" name="Reshape_426_compressed" type="Const" version="opset1">
			<data element_type="f16" shape="1, 128, 1, 1" offset="980410" size="256" />
			<output>
				<port id="0" precision="FP16">
					<dim>1</dim>
					<dim>128</dim>
					<dim>1</dim>
					<dim>1</dim>
				</port>
			</output>
		</layer>
		<layer id="364" name="Reshape_426" type="Convert" version="opset1">
			<data destination_type="f32" />
			<rt_info>
				<attribute name="decompression" version="0" />
			</rt_info>
			<input>
				<port id="0" precision="FP16">
					<dim>1</dim>
					<dim>128</dim>
					<dim>1</dim>
					<dim>1</dim>
				</port>
			</input>
			<output>
				<port id="1" precision="FP32">
					<dim>1</dim>
					<dim>128</dim>
					<dim>1</dim>
					<dim>1</dim>
				</port>
			</output>
		</layer>
		<layer id="365" name="/model.6/m.0/cv2/conv/Conv" type="Add" version="opset1">
			<data auto_broadcast="numpy" />
			<input>
				<port id="0" precision="FP32">
					<dim>-1</dim>
					<dim>128</dim>
					<dim>-1</dim>
					<dim>-1</dim>
				</port>
				<port id="1" precision="FP32">
					<dim>1</dim>
					<dim>128</dim>
					<dim>1</dim>
					<dim>1</dim>
				</port>
			</input>
			<output>
				<port id="2" precision="FP32" names="/model.6/m.0/cv2/conv/Conv_output_0">
					<dim>-1</dim>
					<dim>128</dim>
					<dim>-1</dim>
					<dim>-1</dim>
				</port>
			</output>
		</layer>
		<layer id="366" name="/model.6/m.0/cv2/act/Mul" type="Swish" version="opset4">
			<input>
				<port id="0" precision="FP32">
					<dim>-1</dim>
					<dim>128</dim>
					<dim>-1</dim>
					<dim>-1</dim>
				</port>
			</input>
			<output>
				<port id="1" precision="FP32" names="/model.6/m.0/cv2/act/Mul_output_0">
					<dim>-1</dim>
					<dim>128</dim>
					<dim>-1</dim>
					<dim>-1</dim>
				</port>
			</output>
		</layer>
		<layer id="367" name="Constant_316673_compressed" type="Const" version="opset1">
			<data element_type="f16" shape="" offset="980666" size="2" />
			<output>
				<port id="0" precision="FP16" />
			</output>
		</layer>
		<layer id="368" name="Constant_316673" type="Convert" version="opset1">
			<data destination_type="f32" />
			<rt_info>
				<attribute name="decompression" version="0" />
			</rt_info>
			<input>
				<port id="0" precision="FP16" />
			</input>
			<output>
				<port id="1" precision="FP32" />
			</output>
		</layer>
		<layer id="369" name="Constant_316674_compressed" type="Const" version="opset1">
			<data element_type="f16" shape="" offset="980668" size="2" />
			<output>
				<port id="0" precision="FP16" />
			</output>
		</layer>
		<layer id="370" name="Constant_316674" type="Convert" version="opset1">
			<data destination_type="f32" />
			<rt_info>
				<attribute name="decompression" version="0" />
			</rt_info>
			<input>
				<port id="0" precision="FP16" />
			</input>
			<output>
				<port id="1" precision="FP32" />
			</output>
		</layer>
		<layer id="371" name="Constant_316675_compressed" type="Const" version="opset1">
			<data element_type="f16" shape="" offset="980670" size="2" />
			<output>
				<port id="0" precision="FP16" />
			</output>
		</layer>
		<layer id="372" name="Constant_316675" type="Convert" version="opset1">
			<data destination_type="f32" />
			<rt_info>
				<attribute name="decompression" version="0" />
			</rt_info>
			<input>
				<port id="0" precision="FP16" />
			</input>
			<output>
				<port id="1" precision="FP32" />
			</output>
		</layer>
		<layer id="373" name="Constant_316676_compressed" type="Const" version="opset1">
			<data element_type="f16" shape="" offset="980672" size="2" />
			<output>
				<port id="0" precision="FP16" />
			</output>
		</layer>
		<layer id="374" name="Constant_316676" type="Convert" version="opset1">
			<data destination_type="f32" />
			<rt_info>
				<attribute name="decompression" version="0" />
			</rt_info>
			<input>
				<port id="0" precision="FP16" />
			</input>
			<output>
				<port id="1" precision="FP32" />
			</output>
		</layer>
		<layer id="375" name="/model.6/m.0/cv2/act/Mul/fq_output_0" type="FakeQuantize" version="opset1">
			<data levels="256" auto_broadcast="numpy" />
			<input>
				<port id="0" precision="FP32">
					<dim>-1</dim>
					<dim>128</dim>
					<dim>-1</dim>
					<dim>-1</dim>
				</port>
				<port id="1" precision="FP32" />
				<port id="2" precision="FP32" />
				<port id="3" precision="FP32" />
				<port id="4" precision="FP32" />
			</input>
			<output>
				<port id="5" precision="FP32">
					<dim>-1</dim>
					<dim>128</dim>
					<dim>-1</dim>
					<dim>-1</dim>
				</port>
			</output>
		</layer>
		<layer id="376" name="/model.6/m.0/Add" type="Add" version="opset1">
			<data auto_broadcast="numpy" />
			<input>
				<port id="0" precision="FP32">
					<dim>-1</dim>
					<dim>128</dim>
					<dim>-1</dim>
					<dim>-1</dim>
				</port>
				<port id="1" precision="FP32">
					<dim>-1</dim>
					<dim>128</dim>
					<dim>-1</dim>
					<dim>-1</dim>
				</port>
			</input>
			<output>
				<port id="2" precision="FP32" names="/model.6/m.0/Add_output_0">
					<dim>-1</dim>
					<dim>128</dim>
					<dim>-1</dim>
					<dim>-1</dim>
				</port>
			</output>
		</layer>
		<layer id="377" name="Constant_316428_compressed" type="Const" version="opset1">
			<data element_type="f16" shape="" offset="980674" size="2" />
			<output>
				<port id="0" precision="FP16" />
			</output>
		</layer>
		<layer id="378" name="Constant_316428" type="Convert" version="opset1">
			<data destination_type="f32" />
			<rt_info>
				<attribute name="decompression" version="0" />
			</rt_info>
			<input>
				<port id="0" precision="FP16" />
			</input>
			<output>
				<port id="1" precision="FP32" />
			</output>
		</layer>
		<layer id="379" name="Constant_316429_compressed" type="Const" version="opset1">
			<data element_type="f16" shape="" offset="980676" size="2" />
			<output>
				<port id="0" precision="FP16" />
			</output>
		</layer>
		<layer id="380" name="Constant_316429" type="Convert" version="opset1">
			<data destination_type="f32" />
			<rt_info>
				<attribute name="decompression" version="0" />
			</rt_info>
			<input>
				<port id="0" precision="FP16" />
			</input>
			<output>
				<port id="1" precision="FP32" />
			</output>
		</layer>
		<layer id="381" name="Constant_316430_compressed" type="Const" version="opset1">
			<data element_type="f16" shape="" offset="980678" size="2" />
			<output>
				<port id="0" precision="FP16" />
			</output>
		</layer>
		<layer id="382" name="Constant_316430" type="Convert" version="opset1">
			<data destination_type="f32" />
			<rt_info>
				<attribute name="decompression" version="0" />
			</rt_info>
			<input>
				<port id="0" precision="FP16" />
			</input>
			<output>
				<port id="1" precision="FP32" />
			</output>
		</layer>
		<layer id="383" name="Constant_316431_compressed" type="Const" version="opset1">
			<data element_type="f16" shape="" offset="980680" size="2" />
			<output>
				<port id="0" precision="FP16" />
			</output>
		</layer>
		<layer id="384" name="Constant_316431" type="Convert" version="opset1">
			<data destination_type="f32" />
			<rt_info>
				<attribute name="decompression" version="0" />
			</rt_info>
			<input>
				<port id="0" precision="FP16" />
			</input>
			<output>
				<port id="1" precision="FP32" />
			</output>
		</layer>
		<layer id="385" name="/model.6/m.0/Add/fq_output_0" type="FakeQuantize" version="opset1">
			<data levels="256" auto_broadcast="numpy" />
			<input>
				<port id="0" precision="FP32">
					<dim>-1</dim>
					<dim>128</dim>
					<dim>-1</dim>
					<dim>-1</dim>
				</port>
				<port id="1" precision="FP32" />
				<port id="2" precision="FP32" />
				<port id="3" precision="FP32" />
				<port id="4" precision="FP32" />
			</input>
			<output>
				<port id="5" precision="FP32">
					<dim>-1</dim>
					<dim>128</dim>
					<dim>-1</dim>
					<dim>-1</dim>
				</port>
			</output>
		</layer>
		<layer id="386" name="model.6.m.1.cv1.conv.weight" type="Const" version="opset1">
			<data element_type="i8" shape="128, 128, 3, 3" offset="980682" size="147456" />
			<output>
				<port id="0" precision="I8">
					<dim>128</dim>
					<dim>128</dim>
					<dim>3</dim>
					<dim>3</dim>
				</port>
			</output>
		</layer>
		<layer id="387" name="Convert_549299" type="Convert" version="opset1">
			<data destination_type="f32" />
			<input>
				<port id="0" precision="I8">
					<dim>128</dim>
					<dim>128</dim>
					<dim>3</dim>
					<dim>3</dim>
				</port>
			</input>
			<output>
				<port id="1" precision="FP32">
					<dim>128</dim>
					<dim>128</dim>
					<dim>3</dim>
					<dim>3</dim>
				</port>
			</output>
		</layer>
		<layer id="388" name="Constant_549197_compressed" type="Const" version="opset1">
			<data element_type="f16" shape="128, 1, 1, 1" offset="1128138" size="256" />
			<output>
				<port id="0" precision="FP16">
					<dim>128</dim>
					<dim>1</dim>
					<dim>1</dim>
					<dim>1</dim>
				</port>
			</output>
		</layer>
		<layer id="389" name="Constant_549197" type="Convert" version="opset1">
			<data destination_type="f32" />
			<rt_info>
				<attribute name="decompression" version="0" />
			</rt_info>
			<input>
				<port id="0" precision="FP16">
					<dim>128</dim>
					<dim>1</dim>
					<dim>1</dim>
					<dim>1</dim>
				</port>
			</input>
			<output>
				<port id="1" precision="FP32">
					<dim>128</dim>
					<dim>1</dim>
					<dim>1</dim>
					<dim>1</dim>
				</port>
			</output>
		</layer>
		<layer id="390" name="/model.6/m.1/cv1/conv/Conv/WithoutBiases/fq_weights_1" type="Multiply" version="opset1">
			<data auto_broadcast="numpy" />
			<input>
				<port id="0" precision="FP32">
					<dim>128</dim>
					<dim>128</dim>
					<dim>3</dim>
					<dim>3</dim>
				</port>
				<port id="1" precision="FP32">
					<dim>128</dim>
					<dim>1</dim>
					<dim>1</dim>
					<dim>1</dim>
				</port>
			</input>
			<output>
				<port id="2" precision="FP32">
					<dim>128</dim>
					<dim>128</dim>
					<dim>3</dim>
					<dim>3</dim>
				</port>
			</output>
		</layer>
		<layer id="391" name="/model.6/m.1/cv1/conv/Conv/WithoutBiases" type="Convolution" version="opset1">
			<data strides="1, 1" dilations="1, 1" pads_begin="1, 1" pads_end="1, 1" auto_pad="explicit" />
			<input>
				<port id="0" precision="FP32">
					<dim>-1</dim>
					<dim>128</dim>
					<dim>-1</dim>
					<dim>-1</dim>
				</port>
				<port id="1" precision="FP32">
					<dim>128</dim>
					<dim>128</dim>
					<dim>3</dim>
					<dim>3</dim>
				</port>
			</input>
			<output>
				<port id="2" precision="FP32">
					<dim>-1</dim>
					<dim>128</dim>
					<dim>-1</dim>
					<dim>-1</dim>
				</port>
			</output>
		</layer>
		<layer id="392" name="Reshape_444_compressed" type="Const" version="opset1">
			<data element_type="f16" shape="1, 128, 1, 1" offset="1128394" size="256" />
			<output>
				<port id="0" precision="FP16">
					<dim>1</dim>
					<dim>128</dim>
					<dim>1</dim>
					<dim>1</dim>
				</port>
			</output>
		</layer>
		<layer id="393" name="Reshape_444" type="Convert" version="opset1">
			<data destination_type="f32" />
			<rt_info>
				<attribute name="decompression" version="0" />
			</rt_info>
			<input>
				<port id="0" precision="FP16">
					<dim>1</dim>
					<dim>128</dim>
					<dim>1</dim>
					<dim>1</dim>
				</port>
			</input>
			<output>
				<port id="1" precision="FP32">
					<dim>1</dim>
					<dim>128</dim>
					<dim>1</dim>
					<dim>1</dim>
				</port>
			</output>
		</layer>
		<layer id="394" name="/model.6/m.1/cv1/conv/Conv" type="Add" version="opset1">
			<data auto_broadcast="numpy" />
			<input>
				<port id="0" precision="FP32">
					<dim>-1</dim>
					<dim>128</dim>
					<dim>-1</dim>
					<dim>-1</dim>
				</port>
				<port id="1" precision="FP32">
					<dim>1</dim>
					<dim>128</dim>
					<dim>1</dim>
					<dim>1</dim>
				</port>
			</input>
			<output>
				<port id="2" precision="FP32" names="/model.6/m.1/cv1/conv/Conv_output_0">
					<dim>-1</dim>
					<dim>128</dim>
					<dim>-1</dim>
					<dim>-1</dim>
				</port>
			</output>
		</layer>
		<layer id="395" name="/model.6/m.1/cv1/act/Mul" type="Swish" version="opset4">
			<input>
				<port id="0" precision="FP32">
					<dim>-1</dim>
					<dim>128</dim>
					<dim>-1</dim>
					<dim>-1</dim>
				</port>
…
		<edge from-layer="910" from-port="2" to-layer="912" to-port="0" />
		<edge from-layer="911" from-port="0" to-layer="912" to-port="1" />
		<edge from-layer="912" from-port="2" to-layer="920" to-port="0" />
		<edge from-layer="912" from-port="2" to-layer="913" to-port="0" />
		<edge from-layer="913" from-port="1" to-layer="919" to-port="0" />
		<edge from-layer="913" from-port="1" to-layer="914" to-port="0" />
		<edge from-layer="914" from-port="2" to-layer="921" to-port="1" />
		<edge from-layer="914" from-port="2" to-layer="915" to-port="1" />
		<edge from-layer="915" from-port="2" to-layer="917" to-port="0" />
		<edge from-layer="916" from-port="0" to-layer="917" to-port="1" />
		<edge from-layer="917" from-port="2" to-layer="924" to-port="0" />
		<edge from-layer="918" from-port="0" to-layer="919" to-port="1" />
		<edge from-layer="919" from-port="2" to-layer="920" to-port="1" />
		<edge from-layer="920" from-port="2" to-layer="921" to-port="0" />
		<edge from-layer="921" from-port="2" to-layer="923" to-port="0" />
		<edge from-layer="922" from-port="0" to-layer="923" to-port="1" />
		<edge from-layer="923" from-port="2" to-layer="924" to-port="1" />
		<edge from-layer="924" from-port="2" to-layer="926" to-port="0" />
		<edge from-layer="925" from-port="0" to-layer="926" to-port="1" />
		<edge from-layer="926" from-port="2" to-layer="1409" to-port="0" />
		<edge from-layer="927" from-port="0" to-layer="928" to-port="0" />
		<edge from-layer="928" from-port="1" to-layer="1130" to-port="0" />
		<edge from-layer="929" from-port="0" to-layer="930" to-port="0" />
		<edge from-layer="930" from-port="1" to-layer="933" to-port="0" />
		<edge from-layer="931" from-port="0" to-layer="932" to-port="0" />
		<edge from-layer="932" from-port="1" to-layer="933" to-port="1" />
		<edge from-layer="933" from-port="2" to-layer="934" to-port="1" />
		<edge from-layer="934" from-port="2" to-layer="937" to-port="0" />
		<edge from-layer="935" from-port="0" to-layer="936" to-port="0" />
		<edge from-layer="936" from-port="1" to-layer="937" to-port="1" />
		<edge from-layer="937" from-port="2" to-layer="938" to-port="0" />
		<edge from-layer="938" from-port="1" to-layer="947" to-port="0" />
		<edge from-layer="939" from-port="0" to-layer="940" to-port="0" />
		<edge from-layer="940" from-port="1" to-layer="947" to-port="1" />
		<edge from-layer="941" from-port="0" to-layer="942" to-port="0" />
		<edge from-layer="942" from-port="1" to-layer="947" to-port="2" />
		<edge from-layer="943" from-port="0" to-layer="944" to-port="0" />
		<edge from-layer="944" from-port="1" to-layer="947" to-port="3" />
		<edge from-layer="945" from-port="0" to-layer="946" to-port="0" />
		<edge from-layer="946" from-port="1" to-layer="947" to-port="4" />
		<edge from-layer="947" from-port="5" to-layer="948" to-port="0" />
		<edge from-layer="948" from-port="2" to-layer="954" to-port="0" />
		<edge from-layer="949" from-port="0" to-layer="950" to-port="0" />
		<edge from-layer="950" from-port="1" to-layer="953" to-port="0" />
		<edge from-layer="951" from-port="0" to-layer="952" to-port="0" />
		<edge from-layer="952" from-port="1" to-layer="953" to-port="1" />
		<edge from-layer="953" from-port="2" to-layer="954" to-port="1" />
		<edge from-layer="954" from-port="2" to-layer="957" to-port="0" />
		<edge from-layer="955" from-port="0" to-layer="956" to-port="0" />
		<edge from-layer="956" from-port="1" to-layer="957" to-port="1" />
		<edge from-layer="957" from-port="2" to-layer="958" to-port="0" />
		<edge from-layer="958" from-port="1" to-layer="967" to-port="0" />
		<edge from-layer="959" from-port="0" to-layer="960" to-port="0" />
		<edge from-layer="960" from-port="1" to-layer="967" to-port="1" />
		<edge from-layer="961" from-port="0" to-layer="962" to-port="0" />
		<edge from-layer="962" from-port="1" to-layer="967" to-port="2" />
		<edge from-layer="963" from-port="0" to-layer="964" to-port="0" />
		<edge from-layer="964" from-port="1" to-layer="967" to-port="3" />
		<edge from-layer="965" from-port="0" to-layer="966" to-port="0" />
		<edge from-layer="966" from-port="1" to-layer="967" to-port="4" />
		<edge from-layer="967" from-port="5" to-layer="969" to-port="0" />
		<edge from-layer="968" from-port="0" to-layer="969" to-port="1" />
		<edge from-layer="969" from-port="3" to-layer="1008" to-port="0" />
		<edge from-layer="969" from-port="4" to-layer="1008" to-port="1" />
		<edge from-layer="969" from-port="4" to-layer="975" to-port="0" />
		<edge from-layer="970" from-port="0" to-layer="971" to-port="0" />
		<edge from-layer="971" from-port="1" to-layer="974" to-port="0" />
		<edge from-layer="972" from-port="0" to-layer="973" to-port="0" />
		<edge from-layer="973" from-port="1" to-layer="974" to-port="1" />
		<edge from-layer="974" from-port="2" to-layer="975" to-port="1" />
		<edge from-layer="975" from-port="2" to-layer="978" to-port="0" />
		<edge from-layer="976" from-port="0" to-layer="977" to-port="0" />
		<edge from-layer="977" from-port="1" to-layer="978" to-port="1" />
		<edge from-layer="978" from-port="2" to-layer="979" to-port="0" />
		<edge from-layer="979" from-port="1" to-layer="988" to-port="0" />
		<edge from-layer="980" from-port="0" to-layer="981" to-port="0" />
		<edge from-layer="981" from-port="1" to-layer="988" to-port="1" />
		<edge from-layer="982" from-port="0" to-layer="983" to-port="0" />
		<edge from-layer="983" from-port="1" to-layer="988" to-port="2" />
		<edge from-layer="984" from-port="0" to-layer="985" to-port="0" />
		<edge from-layer="985" from-port="1" to-layer="988" to-port="3" />
		<edge from-layer="986" from-port="0" to-layer="987" to-port="0" />
		<edge from-layer="987" from-port="1" to-layer="988" to-port="4" />
		<edge from-layer="988" from-port="5" to-layer="994" to-port="0" />
		<edge from-layer="989" from-port="0" to-layer="990" to-port="0" />
		<edge from-layer="990" from-port="1" to-layer="993" to-port="0" />
		<edge from-layer="991" from-port="0" to-layer="992" to-port="0" />
		<edge from-layer="992" from-port="1" to-layer="993" to-port="1" />
		<edge from-layer="993" from-port="2" to-layer="994" to-port="1" />
		<edge from-layer="994" from-port="2" to-layer="997" to-port="0" />
		<edge from-layer="995" from-port="0" to-layer="996" to-port="0" />
		<edge from-layer="996" from-port="1" to-layer="997" to-port="1" />
		<edge from-layer="997" from-port="2" to-layer="998" to-port="0" />
		<edge from-layer="998" from-port="1" to-layer="1007" to-port="0" />
		<edge from-layer="999" from-port="0" to-layer="1000" to-port="0" />
		<edge from-layer="1000" from-port="1" to-layer="1007" to-port="1" />
		<edge from-layer="1001" from-port="0" to-layer="1002" to-port="0" />
		<edge from-layer="1002" from-port="1" to-layer="1007" to-port="2" />
		<edge from-layer="1003" from-port="0" to-layer="1004" to-port="0" />
		<edge from-layer="1004" from-port="1" to-layer="1007" to-port="3" />
		<edge from-layer="1005" from-port="0" to-layer="1006" to-port="0" />
		<edge from-layer="1006" from-port="1" to-layer="1007" to-port="4" />
		<edge from-layer="1007" from-port="5" to-layer="1008" to-port="2" />
		<edge from-layer="1008" from-port="3" to-layer="1014" to-port="0" />
		<edge from-layer="1009" from-port="0" to-layer="1010" to-port="0" />
		<edge from-layer="1010" from-port="1" to-layer="1013" to-port="0" />
		<edge from-layer="1011" from-port="0" to-layer="1012" to-port="0" />
		<edge from-layer="1012" from-port="1" to-layer="1013" to-port="1" />
		<edge from-layer="1013" from-port="2" to-layer="1014" to-port="1" />
		<edge from-layer="1014" from-port="2" to-layer="1017" to-port="0" />
		<edge from-layer="1015" from-port="0" to-layer="1016" to-port="0" />
		<edge from-layer="1016" from-port="1" to-layer="1017" to-port="1" />
		<edge from-layer="1017" from-port="2" to-layer="1018" to-port="0" />
		<edge from-layer="1018" from-port="1" to-layer="1027" to-port="0" />
		<edge from-layer="1019" from-port="0" to-layer="1020" to-port="0" />
		<edge from-layer="1020" from-port="1" to-layer="1027" to-port="1" />
		<edge from-layer="1021" from-port="0" to-layer="1022" to-port="0" />
		<edge from-layer="1022" from-port="1" to-layer="1027" to-port="2" />
		<edge from-layer="1023" from-port="0" to-layer="1024" to-port="0" />
		<edge from-layer="1024" from-port="1" to-layer="1027" to-port="3" />
		<edge from-layer="1025" from-port="0" to-layer="1026" to-port="0" />
		<edge from-layer="1026" from-port="1" to-layer="1027" to-port="4" />
		<edge from-layer="1027" from-port="5" to-layer="1175" to-port="0" />
		<edge from-layer="1027" from-port="5" to-layer="1080" to-port="0" />
		<edge from-layer="1027" from-port="5" to-layer="1033" to-port="0" />
		<edge from-layer="1028" from-port="0" to-layer="1029" to-port="0" />
		<edge from-layer="1029" from-port="1" to-layer="1032" to-port="0" />
		<edge from-layer="1030" from-port="0" to-layer="1031" to-port="0" />
		<edge from-layer="1031" from-port="1" to-layer="1032" to-port="1" />
		<edge from-layer="1032" from-port="2" to-layer="1033" to-port="1" />
		<edge from-layer="1033" from-port="2" to-layer="1036" to-port="0" />
		<edge from-layer="1034" from-port="0" to-layer="1035" to-port="0" />
		<edge from-layer="1035" from-port="1" to-layer="1036" to-port="1" />
		<edge from-layer="1036" from-port="2" to-layer="1037" to-port="0" />
		<edge from-layer="1037" from-port="1" to-layer="1046" to-port="0" />
		<edge from-layer="1038" from-port="0" to-layer="1039" to-port="0" />
		<edge from-layer="1039" from-port="1" to-layer="1046" to-port="1" />
		<edge from-layer="1040" from-port="0" to-layer="1041" to-port="0" />
		<edge from-layer="1041" from-port="1" to-layer="1046" to-port="2" />
		<edge from-layer="1042" from-port="0" to-layer="1043" to-port="0" />
		<edge from-layer="1043" from-port="1" to-layer="1046" to-port="3" />
		<edge from-layer="1044" from-port="0" to-layer="1045" to-port="0" />
		<edge from-layer="1045" from-port="1" to-layer="1046" to-port="4" />
		<edge from-layer="1046" from-port="5" to-layer="1052" to-port="0" />
		<edge from-layer="1047" from-port="0" to-layer="1048" to-port="0" />
		<edge from-layer="1048" from-port="1" to-layer="1051" to-port="0" />
		<edge from-layer="1049" from-port="0" to-layer="1050" to-port="0" />
		<edge from-layer="1050" from-port="1" to-layer="1051" to-port="1" />
		<edge from-layer="1051" from-port="2" to-layer="1052" to-port="1" />
		<edge from-layer="1052" from-port="2" to-layer="1055" to-port="0" />
		<edge from-layer="1053" from-port="0" to-layer="1054" to-port="0" />
		<edge from-layer="1054" from-port="1" to-layer="1055" to-port="1" />
		<edge from-layer="1055" from-port="2" to-layer="1056" to-port="0" />
		<edge from-layer="1056" from-port="1" to-layer="1065" to-port="0" />
		<edge from-layer="1057" from-port="0" to-layer="1058" to-port="0" />
		<edge from-layer="1058" from-port="1" to-layer="1065" to-port="1" />
		<edge from-layer="1059" from-port="0" to-layer="1060" to-port="0" />
		<edge from-layer="1060" from-port="1" to-layer="1065" to-port="2" />
		<edge from-layer="1061" from-port="0" to-layer="1062" to-port="0" />
		<edge from-layer="1062" from-port="1" to-layer="1065" to-port="3" />
		<edge from-layer="1063" from-port="0" to-layer="1064" to-port="0" />
		<edge from-layer="1064" from-port="1" to-layer="1065" to-port="4" />
		<edge from-layer="1065" from-port="5" to-layer="1071" to-port="0" />
		<edge from-layer="1066" from-port="0" to-layer="1067" to-port="0" />
		<edge from-layer="1067" from-port="1" to-layer="1070" to-port="0" />
		<edge from-layer="1068" from-port="0" to-layer="1069" to-port="0" />
		<edge from-layer="1069" from-port="1" to-layer="1070" to-port="1" />
		<edge from-layer="1070" from-port="2" to-layer="1071" to-port="1" />
		<edge from-layer="1071" from-port="2" to-layer="1074" to-port="0" />
		<edge from-layer="1072" from-port="0" to-layer="1073" to-port="0" />
		<edge from-layer="1073" from-port="1" to-layer="1074" to-port="1" />
		<edge from-layer="1074" from-port="2" to-layer="1122" to-port="0" />
		<edge from-layer="1075" from-port="0" to-layer="1076" to-port="0" />
		<edge from-layer="1076" from-port="1" to-layer="1079" to-port="0" />
		<edge from-layer="1077" from-port="0" to-layer="1078" to-port="0" />
		<edge from-layer="1078" from-port="1" to-layer="1079" to-port="1" />
		<edge from-layer="1079" from-port="2" to-layer="1080" to-port="1" />
		<edge from-layer="1080" from-port="2" to-layer="1083" to-port="0" />
		<edge from-layer="1081" from-port="0" to-layer="1082" to-port="0" />
		<edge from-layer="1082" from-port="1" to-layer="1083" to-port="1" />
		<edge from-layer="1083" from-port="2" to-layer="1084" to-port="0" />
		<edge from-layer="1084" from-port="1" to-layer="1093" to-port="0" />
		<edge from-layer="1085" from-port="0" to-layer="1086" to-port="0" />
		<edge from-layer="1086" from-port="1" to-layer="1093" to-port="1" />
		<edge from-layer="1087" from-port="0" to-layer="1088" to-port="0" />
		<edge from-layer="1088" from-port="1" to-layer="1093" to-port="2" />
		<edge from-layer="1089" from-port="0" to-layer="1090" to-port="0" />
		<edge from-layer="1090" from-port="1" to-layer="1093" to-port="3" />
		<edge from-layer="1091" from-port="0" to-layer="1092" to-port="0" />
		<edge from-layer="1092" from-port="1" to-layer="1093" to-port="4" />
		<edge from-layer="1093" from-port="5" to-layer="1099" to-port="0" />
		<edge from-layer="1094" from-port="0" to-layer="1095" to-port="0" />
		<edge from-layer="1095" from-port="1" to-layer="1098" to-port="0" />
		<edge from-layer="1096" from-port="0" to-layer="1097" to-port="0" />
		<edge from-layer="1097" from-port="1" to-layer="1098" to-port="1" />
		<edge from-layer="1098" from-port="2" to-layer="1099" to-port="1" />
		<edge from-layer="1099" from-port="2" to-layer="1102" to-port="0" />
		<edge from-layer="1100" from-port="0" to-layer="1101" to-port="0" />
		<edge from-layer="1101" from-port="1" to-layer="1102" to-port="1" />
		<edge from-layer="1102" from-port="2" to-layer="1103" to-port="0" />
		<edge from-layer="1103" from-port="1" to-layer="1112" to-port="0" />
		<edge from-layer="1104" from-port="0" to-layer="1105" to-port="0" />
		<edge from-layer="1105" from-port="1" to-layer="1112" to-port="1" />
		<edge from-layer="1106" from-port="0" to-layer="1107" to-port="0" />
		<edge from-layer="1107" from-port="1" to-layer="1112" to-port="2" />
		<edge from-layer="1108" from-port="0" to-layer="1109" to-port="0" />
		<edge from-layer="1109" from-port="1" to-layer="1112" to-port="3" />
		<edge from-layer="1110" from-port="0" to-layer="1111" to-port="0" />
		<edge from-layer="1111" from-port="1" to-layer="1112" to-port="4" />
		<edge from-layer="1112" from-port="5" to-layer="1118" to-port="0" />
		<edge from-layer="1113" from-port="0" to-layer="1114" to-port="0" />
		<edge from-layer="1114" from-port="1" to-layer="1117" to-port="0" />
		<edge from-layer="1115" from-port="0" to-layer="1116" to-port="0" />
		<edge from-layer="1116" from-port="1" to-layer="1117" to-port="1" />
		<edge from-layer="1117" from-port="2" to-layer="1118" to-port="1" />
		<edge from-layer="1118" from-port="2" to-layer="1121" to-port="0" />
		<edge from-layer="1119" from-port="0" to-layer="1120" to-port="0" />
		<edge from-layer="1120" from-port="1" to-layer="1121" to-port="1" />
		<edge from-layer="1121" from-port="2" to-layer="1122" to-port="1" />
		<edge from-layer="1122" from-port="2" to-layer="1422" to-port="0" />
		<edge from-layer="1122" from-port="2" to-layer="1123" to-port="0" />
		<edge from-layer="1123" from-port="1" to-layer="1126" to-port="0" />
		<edge from-layer="1123" from-port="1" to-layer="1144" to-port="0" />
		<edge from-layer="1124" from-port="0" to-layer="1126" to-port="1" />
		<edge from-layer="1125" from-port="0" to-layer="1126" to-port="2" />
		<edge from-layer="1126" from-port="3" to-layer="1513" to-port="1" />
		<edge from-layer="1126" from-port="3" to-layer="1127" to-port="0" />
		<edge from-layer="1127" from-port="1" to-layer="1130" to-port="1" />
		<edge from-layer="1128" from-port="0" to-layer="1129" to-port="0" />
		<edge from-layer="1129" from-port="1" to-layer="1130" to-port="2" />
		<edge from-layer="1130" from-port="3" to-layer="1133" to-port="0" />
		<edge from-layer="1131" from-port="0" to-layer="1132" to-port="0" />
		<edge from-layer="1132" from-port="1" to-layer="1133" to-port="1" />
		<edge from-layer="1133" from-port="2" to-layer="1135" to-port="0" />
		<edge from-layer="1134" from-port="0" to-layer="1135" to-port="1" />
		<edge from-layer="1135" from-port="2" to-layer="1137" to-port="0" />
		<edge from-layer="1135" from-port="2" to-layer="1139" to-port="0" />
		<edge from-layer="1136" from-port="0" to-layer="1138" to-port="0" />
		<edge from-layer="1137" from-port="1" to-layer="1155" to-port="1" />
		<edge from-layer="1137" from-port="1" to-layer="1138" to-port="1" />
		<edge from-layer="1138" from-port="2" to-layer="1139" to-port="1" />
		<edge from-layer="1139" from-port="2" to-layer="1156" to-port="0" />
		<edge from-layer="1140" from-port="0" to-layer="1141" to-port="0" />
		<edge from-layer="1141" from-port="1" to-layer="1148" to-port="0" />
		<edge from-layer="1142" from-port="0" to-layer="1144" to-port="1" />
		<edge from-layer="1143" from-port="0" to-layer="1144" to-port="2" />
		<edge from-layer="1144" from-port="3" to-layer="1513" to-port="0" />
		<edge from-layer="1144" from-port="3" to-layer="1145" to-port="0" />
		<edge from-layer="1145" from-port="1" to-layer="1148" to-port="1" />
		<edge from-layer="1146" from-port="0" to-layer="1147" to-port="0" />
		<edge from-layer="1147" from-port="1" to-layer="1148" to-port="2" />
		<edge from-layer="1148" from-port="3" to-layer="1151" to-port="0" />
		<edge from-layer="1149" from-port="0" to-layer="1150" to-port="0" />
		<edge from-layer="1150" from-port="1" to-layer="1151" to-port="1" />
		<edge from-layer="1151" from-port="2" to-layer="1153" to-port="0" />
		<edge from-layer="1152" from-port="0" to-layer="1153" to-port="1" />
		<edge from-layer="1153" from-port="2" to-layer="1154" to-port="0" />
		<edge from-layer="1153" from-port="2" to-layer="1161" to-port="0" />
		<edge from-layer="1154" from-port="1" to-layer="1155" to-port="0" />
		<edge from-layer="1154" from-port="1" to-layer="1160" to-port="0" />
		<edge from-layer="1155" from-port="2" to-layer="1162" to-port="1" />
		<edge from-layer="1155" from-port="2" to-layer="1156" to-port="1" />
		<edge from-layer="1156" from-port="2" to-layer="1158" to-port="0" />
		<edge from-layer="1157" from-port="0" to-layer="1158" to-port="1" />
		<edge from-layer="1158" from-port="2" to-layer="1165" to-port="0" />
		<edge from-layer="1159" from-port="0" to-layer="1160" to-port="1" />
		<edge from-layer="1160" from-port="2" to-layer="1161" to-port="1" />
		<edge from-layer="1161" from-port="2" to-layer="1162" to-port="0" />
		<edge from-layer="1162" from-port="2" to-layer="1164" to-port="0" />
		<edge from-layer="1163" from-port="0" to-layer="1164" to-port="1" />
		<edge from-layer="1164" from-port="2" to-layer="1165" to-port="1" />
		<edge from-layer="1165" from-port="2" to-layer="1167" to-port="0" />
		<edge from-layer="1166" from-port="0" to-layer="1167" to-port="1" />
		<edge from-layer="1167" from-port="2" to-layer="1409" to-port="1" />
		<edge from-layer="1168" from-port="0" to-layer="1169" to-port="0" />
		<edge from-layer="1169" from-port="1" to-layer="1371" to-port="0" />
		<edge from-layer="1170" from-port="0" to-layer="1171" to-port="0" />
		<edge from-layer="1171" from-port="1" to-layer="1174" to-port="0" />
		<edge from-layer="1172" from-port="0" to-layer="1173" to-port="0" />
		<edge from-layer="1173" from-port="1" to-layer="1174" to-port="1" />
		<edge from-layer="1174" from-port="2" to-layer="1175" to-port="1" />
		<edge from-layer="1175" from-port="2" to-layer="1178" to-port="0" />
		<edge from-layer="1176" from-port="0" to-layer="1177" to-port="0" />
		<edge from-layer="1177" from-port="1" to-layer="1178" to-port="1" />
		<edge from-layer="1178" from-port="2" to-layer="1179" to-port="0" />
		<edge from-layer="1179" from-port="1" to-layer="1188" to-port="0" />
		<edge from-layer="1180" from-port="0" to-layer="1181" to-port="0" />
		<edge from-layer="1181" from-port="1" to-layer="1188" to-port="1" />
		<edge from-layer="1182" from-port="0" to-layer="1183" to-port="0" />
		<edge from-layer="1183" from-port="1" to-layer="1188" to-port="2" />
		<edge from-layer="1184" from-port="0" to-layer="1185" to-port="0" />
		<edge from-layer="1185" from-port="1" to-layer="1188" to-port="3" />
		<edge from-layer="1186" from-port="0" to-layer="1187" to-port="0" />
		<edge from-layer="1187" from-port="1" to-layer="1188" to-port="4" />
		<edge from-layer="1188" from-port="5" to-layer="1189" to-port="0" />
		<edge from-layer="1189" from-port="2" to-layer="1195" to-port="0" />
		<edge from-layer="1190" from-port="0" to-layer="1191" to-port="0" />
		<edge from-layer="1191" from-port="1" to-layer="1194" to-port="0" />
		<edge from-layer="1192" from-port="0" to-layer="1193" to-port="0" />
		<edge from-layer="1193" from-port="1" to-layer="1194" to-port="1" />
		<edge from-layer="1194" from-port="2" to-layer="1195" to-port="1" />
		<edge from-layer="1195" from-port="2" to-layer="1198" to-port="0" />
		<edge from-layer="1196" from-port="0" to-layer="1197" to-port="0" />
		<edge from-layer="1197" from-port="1" to-layer="1198" to-port="1" />
		<edge from-layer="1198" from-port="2" to-layer="1199" to-port="0" />
		<edge from-layer="1199" from-port="1" to-layer="1208" to-port="0" />
		<edge from-layer="1200" from-port="0" to-layer="1201" to-port="0" />
		<edge from-layer="1201" from-port="1" to-layer="1208" to-port="1" />
		<edge from-layer="1202" from-port="0" to-layer="1203" to-port="0" />
		<edge from-layer="1203" from-port="1" to-layer="1208" to-port="2" />
		<edge from-layer="1204" from-port="0" to-layer="1205" to-port="0" />
		<edge from-layer="1205" from-port="1" to-layer="1208" to-port="3" />
		<edge from-layer="1206" from-port="0" to-layer="1207" to-port="0" />
		<edge from-layer="1207" from-port="1" to-layer="1208" to-port="4" />
		<edge from-layer="1208" from-port="5" to-layer="1210" to-port="0" />
		<edge from-layer="1209" from-port="0" to-layer="1210" to-port="1" />
		<edge from-layer="1210" from-port="4" to-layer="1216" to-port="0" />
		<edge from-layer="1210" from-port="4" to-layer="1249" to-port="1" />
		<edge from-layer="1210" from-port="3" to-layer="1249" to-port="0" />
		<edge from-layer="1211" from-port="0" to-layer="1212" to-port="0" />
		<edge from-layer="1212" from-port="1" to-layer="1215" to-port="0" />
		<edge from-layer="1213" from-port="0" to-layer="1214" to-port="0" />
		<edge from-layer="1214" from-port="1" to-layer="1215" to-port="1" />
		<edge from-layer="1215" from-port="2" to-layer="1216" to-port="1" />
		<edge from-layer="1216" from-port="2" to-layer="1219" to-port="0" />
		<edge from-layer="1217" from-port="0" to-layer="1218" to-port="0" />
		<edge from-layer="1218" from-port="1" to-layer="1219" to-port="1" />
		<edge from-layer="1219" from-port="2" to-layer="1220" to-port="0" />
		<edge from-layer="1220" from-port="1" to-layer="1229" to-port="0" />
		<edge from-layer="1221" from-port="0" to-layer="1222" to-port="0" />
		<edge from-layer="1222" from-port="1" to-layer="1229" to-port="1" />
		<edge from-layer="1223" from-port="0" to-layer="1224" to-port="0" />
		<edge from-layer="1224" from-port="1" to-layer="1229" to-port="2" />
		<edge from-layer="1225" from-port="0" to-layer="1226" to-port="0" />
		<edge from-layer="1226" from-port="1" to-layer="1229" to-port="3" />
		<edge from-layer="1227" from-port="0" to-layer="1228" to-port="0" />
		<edge from-layer="1228" from-port="1" to-layer="1229" to-port="4" />
		<edge from-layer="1229" from-port="5" to-layer="1235" to-port="0" />
		<edge from-layer="1230" from-port="0" to-layer="1231" to-port="0" />
		<edge from-layer="1231" from-port="1" to-layer="1234" to-port="0" />
		<edge from-layer="1232" from-port="0" to-layer="1233" to-port="0" />
		<edge from-layer="1233" from-port="1" to-layer="1234" to-port="1" />
		<edge from-layer="1234" from-port="2" to-layer="1235" to-port="1" />
		<edge from-layer="1235" from-port="2" to-layer="1238" to-port="0" />
		<edge from-layer="1236" from-port="0" to-layer="1237" to-port="0" />
		<edge from-layer="1237" from-port="1" to-layer="1238" to-port="1" />
		<edge from-layer="1238" from-port="2" to-layer="1239" to-port="0" />
		<edge from-layer="1239" from-port="1" to-layer="1248" to-port="0" />
		<edge from-layer="1240" from-port="0" to-layer="1241" to-port="0" />
		<edge from-layer="1241" from-port="1" to-layer="1248" to-port="1" />
		<edge from-layer="1242" from-port="0" to-layer="1243" to-port="0" />
		<edge from-layer="1243" from-port="1" to-layer="1248" to-port="2" />
		<edge from-layer="1244" from-port="0" to-layer="1245" to-port="0" />
		<edge from-layer="1245" from-port="1" to-layer="1248" to-port="3" />
		<edge from-layer="1246" from-port="0" to-layer="1247" to-port="0" />
		<edge from-layer="1247" from-port="1" to-layer="1248" to-port="4" />
		<edge from-layer="1248" from-port="5" to-layer="1249" to-port="2" />
		<edge from-layer="1249" from-port="3" to-layer="1255" to-port="0" />
		<edge from-layer="1250" from-port="0" to-layer="1251" to-port="0" />
		<edge from-layer="1251" from-port="1" to-layer="1254" to-port="0" />
		<edge from-layer="1252" from-port="0" to-layer="1253" to-port="0" />
		<edge from-layer="1253" from-port="1" to-layer="1254" to-port="1" />
		<edge from-layer="1254" from-port="2" to-layer="1255" to-port="1" />
		<edge from-layer="1255" from-port="2" to-layer="1258" to-port="0" />
		<edge from-layer="1256" from-port="0" to-layer="1257" to-port="0" />
		<edge from-layer="1257" from-port="1" to-layer="1258" to-port="1" />
		<edge from-layer="1258" from-port="2" to-layer="1259" to-port="0" />
		<edge from-layer="1259" from-port="1" to-layer="1268" to-port="0" />
		<edge from-layer="1260" from-port="0" to-layer="1261" to-port="0" />
		<edge from-layer="1261" from-port="1" to-layer="1268" to-port="1" />
		<edge from-layer="1262" from-port="0" to-layer="1263" to-port="0" />
		<edge from-layer="1263" from-port="1" to-layer="1268" to-port="2" />
		<edge from-layer="1264" from-port="0" to-layer="1265" to-port="0" />
		<edge from-layer="1265" from-port="1" to-layer="1268" to-port="3" />
		<edge from-layer="1266" from-port="0" to-layer="1267" to-port="0" />
		<edge from-layer="1267" from-port="1" to-layer="1268" to-port="4" />
		<edge from-layer="1268" from-port="5" to-layer="1321" to-port="0" />
		<edge from-layer="1268" from-port="5" to-layer="1274" to-port="0" />
		<edge from-layer="1269" from-port="0" to-layer="1270" to-port="0" />
		<edge from-layer="1270" from-port="1" to-layer="1273" to-port="0" />
		<edge from-layer="1271" from-port="0" to-layer="1272" to-port="0" />
		<edge from-layer="1272" from-port="1" to-layer="1273" to-port="1" />
		<edge from-layer="1273" from-port="2" to-layer="1274" to-port="1" />
		<edge from-layer="1274" from-port="2" to-layer="1277" to-port="0" />
		<edge from-layer="1275" from-port="0" to-layer="1276" to-port="0" />
		<edge from-layer="1276" from-port="1" to-layer="1277" to-port="1" />
		<edge from-layer="1277" from-port="2" to-layer="1278" to-port="0" />
		<edge from-layer="1278" from-port="1" to-layer="1287" to-port="0" />
		<edge from-layer="1279" from-port="0" to-layer="1280" to-port="0" />
		<edge from-layer="1280" from-port="1" to-layer="1287" to-port="1" />
		<edge from-layer="1281" from-port="0" to-layer="1282" to-port="0" />
		<edge from-layer="1282" from-port="1" to-layer="1287" to-port="2" />
		<edge from-layer="1283" from-port="0" to-layer="1284" to-port="0" />
		<edge from-layer="1284" from-port="1" to-layer="1287" to-port="3" />
		<edge from-layer="1285" from-port="0" to-layer="1286" to-port="0" />
		<edge from-layer="1286" from-port="1" to-layer="1287" to-port="4" />
		<edge from-layer="1287" from-port="5" to-layer="1293" to-port="0" />
		<edge from-layer="1288" from-port="0" to-layer="1289" to-port="0" />
		<edge from-layer="1289" from-port="1" to-layer="1292" to-port="0" />
		<edge from-layer="1290" from-port="0" to-layer="1291" to-port="0" />
		<edge from-layer="1291" from-port="1" to-layer="1292" to-port="1" />
		<edge from-layer="1292" from-port="2" to-layer="1293" to-port="1" />
		<edge from-layer="1293" from-port="2" to-layer="1296" to-port="0" />
		<edge from-layer="1294" from-port="0" to-layer="1295" to-port="0" />
		<edge from-layer="1295" from-port="1" to-layer="1296" to-port="1" />
		<edge from-layer="1296" from-port="2" to-layer="1297" to-port="0" />
		<edge from-layer="1297" from-port="1" to-layer="1306" to-port="0" />
		<edge from-layer="1298" from-port="0" to-layer="1299" to-port="0" />
		<edge from-layer="1299" from-port="1" to-layer="1306" to-port="1" />
		<edge from-layer="1300" from-port="0" to-layer="1301" to-port="0" />
		<edge from-layer="1301" from-port="1" to-layer="1306" to-port="2" />
		<edge from-layer="1302" from-port="0" to-layer="1303" to-port="0" />
		<edge from-layer="1303" from-port="1" to-layer="1306" to-port="3" />
		<edge from-layer="1304" from-port="0" to-layer="1305" to-port="0" />
		<edge from-layer="1305" from-port="1" to-layer="1306" to-port="4" />
		<edge from-layer="1306" from-port="5" to-layer="1312" to-port="0" />
		<edge from-layer="1307" from-port="0" to-layer="1308" to-port="0" />
		<edge from-layer="1308" from-port="1" to-layer="1311" to-port="0" />
		<edge from-layer="1309" from-port="0" to-layer="1310" to-port="0" />
		<edge from-layer="1310" from-port="1" to-layer="1311" to-port="1" />
		<edge from-layer="1311" from-port="2" to-layer="1312" to-port="1" />
		<edge from-layer="1312" from-port="2" to-layer="1315" to-port="0" />
		<edge from-layer="1313" from-port="0" to-layer="1314" to-port="0" />
		<edge from-layer="1314" from-port="1" to-layer="1315" to-port="1" />
		<edge from-layer="1315" from-port="2" to-layer="1363" to-port="0" />
		<edge from-layer="1316" from-port="0" to-layer="1317" to-port="0" />
		<edge from-layer="1317" from-port="1" to-layer="1320" to-port="0" />
		<edge from-layer="1318" from-port="0" to-layer="1319" to-port="0" />
		<edge from-layer="1319" from-port="1" to-layer="1320" to-port="1" />
		<edge from-layer="1320" from-port="2" to-layer="1321" to-port="1" />
		<edge from-layer="1321" from-port="2" to-layer="1324" to-port="0" />
		<edge from-layer="1322" from-port="0" to-layer="1323" to-port="0" />
		<edge from-layer="1323" from-port="1" to-layer="1324" to-port="1" />
		<edge from-layer="1324" from-port="2" to-layer="1325" to-port="0" />
		<edge from-layer="1325" from-port="1" to-layer="1334" to-port="0" />
		<edge from-layer="1326" from-port="0" to-layer="1327" to-port="0" />
		<edge from-layer="1327" from-port="1" to-layer="1334" to-port="1" />
		<edge from-layer="1328" from-port="0" to-layer="1329" to-port="0" />
		<edge from-layer="1329" from-port="1" to-layer="1334" to-port="2" />
		<edge from-layer="1330" from-port="0" to-layer="1331" to-port="0" />
		<edge from-layer="1331" from-port="1" to-layer="1334" to-port="3" />
		<edge from-layer="1332" from-port="0" to-layer="1333" to-port="0" />
		<edge from-layer="1333" from-port="1" to-layer="1334" to-port="4" />
		<edge from-layer="1334" from-port="5" to-layer="1340" to-port="0" />
		<edge from-layer="1335" from-port="0" to-layer="1336" to-port="0" />
		<edge from-layer="1336" from-port="1" to-layer="1339" to-port="0" />
		<edge from-layer="1337" from-port="0" to-layer="1338" to-port="0" />
		<edge from-layer="1338" from-port="1" to-layer="1339" to-port="1" />
		<edge from-layer="1339" from-port="2" to-layer="1340" to-port="1" />
		<edge from-layer="1340" from-port="2" to-layer="1343" to-port="0" />
		<edge from-layer="1341" from-port="0" to-layer="1342" to-port="0" />
		<edge from-layer="1342" from-port="1" to-layer="1343" to-port="1" />
		<edge from-layer="1343" from-port="2" to-layer="1344" to-port="0" />
		<edge from-layer="1344" from-port="1" to-layer="1353" to-port="0" />
		<edge from-layer="1345" from-port="0" to-layer="1346" to-port="0" />
		<edge from-layer="1346" from-port="1" to-layer="1353" to-port="1" />
		<edge from-layer="1347" from-port="0" to-layer="1348" to-port="0" />
		<edge from-layer="1348" from-port="1" to-layer="1353" to-port="2" />
		<edge from-layer="1349" from-port="0" to-layer="1350" to-port="0" />
		<edge from-layer="1350" from-port="1" to-layer="1353" to-port="3" />
		<edge from-layer="1351" from-port="0" to-layer="1352" to-port="0" />
		<edge from-layer="1352" from-port="1" to-layer="1353" to-port="4" />
		<edge from-layer="1353" from-port="5" to-layer="1359" to-port="0" />
		<edge from-layer="1354" from-port="0" to-layer="1355" to-port="0" />
		<edge from-layer="1355" from-port="1" to-layer="1358" to-port="0" />
		<edge from-layer="1356" from-port="0" to-layer="1357" to-port="0" />
		<edge from-layer="1357" from-port="1" to-layer="1358" to-port="1" />
		<edge from-layer="1358" from-port="2" to-layer="1359" to-port="1" />
		<edge from-layer="1359" from-port="2" to-layer="1362" to-port="0" />
		<edge from-layer="1360" from-port="0" to-layer="1361" to-port="0" />
		<edge from-layer="1361" from-port="1" to-layer="1362" to-port="1" />
		<edge from-layer="1362" from-port="2" to-layer="1363" to-port="1" />
		<edge from-layer="1363" from-port="2" to-layer="1364" to-port="0" />
		<edge from-layer="1363" from-port="2" to-layer="1423" to-port="0" />
		<edge from-layer="1364" from-port="1" to-layer="1367" to-port="0" />
		<edge from-layer="1364" from-port="1" to-layer="1385" to-port="0" />
		<edge from-layer="1365" from-port="0" to-layer="1367" to-port="1" />
		<edge from-layer="1366" from-port="0" to-layer="1367" to-port="2" />
		<edge from-layer="1367" from-port="3" to-layer="1368" to-port="0" />
		<edge from-layer="1367" from-port="3" to-layer="1524" to-port="1" />
		<edge from-layer="1368" from-port="1" to-layer="1371" to-port="1" />
		<edge from-layer="1369" from-port="0" to-layer="1370" to-port="0" />
		<edge from-layer="1370" from-port="1" to-layer="1371" to-port="2" />
		<edge from-layer="1371" from-port="3" to-layer="1374" to-port="0" />
		<edge from-layer="1372" from-port="0" to-layer="1373" to-port="0" />
		<edge from-layer="1373" from-port="1" to-layer="1374" to-port="1" />
		<edge from-layer="1374" from-port="2" to-layer="1376" to-port="0" />
		<edge from-layer="1375" from-port="0" to-layer="1376" to-port="1" />
		<edge from-layer="1376" from-port="2" to-layer="1380" to-port="0" />
		<edge from-layer="1376" from-port="2" to-layer="1378" to-port="0" />
		<edge from-layer="1377" from-port="0" to-layer="1379" to-port="0" />
		<edge from-layer="1378" from-port="1" to-layer="1379" to-port="1" />
		<edge from-layer="1378" from-port="1" to-layer="1396" to-port="1" />
		<edge from-layer="1379" from-port="2" to-layer="1380" to-port="1" />
		<edge from-layer="1380" from-port="2" to-layer="1397" to-port="0" />
		<edge from-layer="1381" from-port="0" to-layer="1382" to-port="0" />
		<edge from-layer="1382" from-port="1" to-layer="1389" to-port="0" />
		<edge from-layer="1383" from-port="0" to-layer="1385" to-port="1" />
		<edge from-layer="1384" from-port="0" to-layer="1385" to-port="2" />
		<edge from-layer="1385" from-port="3" to-layer="1524" to-port="0" />
		<edge from-layer="1385" from-port="3" to-layer="1386" to-port="0" />
		<edge from-layer="1386" from-port="1" to-layer="1389" to-port="1" />
		<edge from-layer="1387" from-port="0" to-layer="1388" to-port="0" />
		<edge from-layer="1388" from-port="1" to-layer="1389" to-port="2" />
		<edge from-layer="1389" from-port="3" to-layer="1392" to-port="0" />
		<edge from-layer="1390" from-port="0" to-layer="1391" to-port="0" />
		<edge from-layer="1391" from-port="1" to-layer="1392" to-port="1" />
		<edge from-layer="1392" from-port="2" to-layer="1394" to-port="0" />
		<edge from-layer="1393" from-port="0" to-layer="1394" to-port="1" />
		<edge from-layer="1394" from-port="2" to-layer="1395" to-port="0" />
		<edge from-layer="1394" from-port="2" to-layer="1402" to-port="0" />
		<edge from-layer="1395" from-port="1" to-layer="1401" to-port="0" />
		<edge from-layer="1395" from-port="1" to-layer="1396" to-port="0" />
		<edge from-layer="1396" from-port="2" to-layer="1403" to-port="1" />
		<edge from-layer="1396" from-port="2" to-layer="1397" to-port="1" />
		<edge from-layer="1397" from-port="2" to-layer="1399" to-port="0" />
		<edge from-layer="1398" from-port="0" to-layer="1399" to-port="1" />
		<edge from-layer="1399" from-port="2" to-layer="1406" to-port="0" />
		<edge from-layer="1400" from-port="0" to-layer="1401" to-port="1" />
		<edge from-layer="1401" from-port="2" to-layer="1402" to-port="1" />
		<edge from-layer="1402" from-port="2" to-layer="1403" to-port="0" />
		<edge from-layer="1403" from-port="2" to-layer="1405" to-port="0" />
		<edge from-layer="1404" from-port="0" to-layer="1405" to-port="1" />
		<edge from-layer="1405" from-port="2" to-layer="1406" to-port="1" />
		<edge from-layer="1406" from-port="2" to-layer="1408" to-port="0" />
		<edge from-layer="1407" from-port="0" to-layer="1408" to-port="1" />
		<edge from-layer="1408" from-port="2" to-layer="1409" to-port="2" />
		<edge from-layer="1409" from-port="3" to-layer="1411" to-port="0" />
		<edge from-layer="1410" from-port="0" to-layer="1411" to-port="1" />
		<edge from-layer="1411" from-port="2" to-layer="1413" to-port="0" />
		<edge from-layer="1412" from-port="0" to-layer="1413" to-port="1" />
		<edge from-layer="1413" from-port="2" to-layer="1464" to-port="0" />
		<edge from-layer="1413" from-port="2" to-layer="1484" to-port="0" />
		<edge from-layer="1414" from-port="1" to-layer="1417" to-port="0" />
		<edge from-layer="1415" from-port="0" to-layer="1417" to-port="1" />
		<edge from-layer="1416" from-port="0" to-layer="1417" to-port="2" />
		<edge from-layer="1417" from-port="3" to-layer="1420" to-port="0" />
		<edge from-layer="1418" from-port="0" to-layer="1420" to-port="1" />
		<edge from-layer="1419" from-port="0" to-layer="1420" to-port="2" />
		<edge from-layer="1420" from-port="3" to-layer="1421" to-port="1" />
		<edge from-layer="1420" from-port="3" to-layer="1423" to-port="1" />
		<edge from-layer="1420" from-port="3" to-layer="1422" to-port="1" />
		<edge from-layer="1421" from-port="2" to-layer="1424" to-port="0" />
		<edge from-layer="1422" from-port="2" to-layer="1424" to-port="1" />
		<edge from-layer="1423" from-port="2" to-layer="1424" to-port="2" />
		<edge from-layer="1424" from-port="3" to-layer="1427" to-port="0" />
		<edge from-layer="1425" from-port="0" to-layer="1427" to-port="1" />
		<edge from-layer="1426" from-port="0" to-layer="1427" to-port="2" />
		<edge from-layer="1427" from-port="4" to-layer="1537" to-port="0" />
		<edge from-layer="1427" from-port="3" to-layer="1436" to-port="0" />
		<edge from-layer="1427" from-port="3" to-layer="1431" to-port="0" />
		<edge from-layer="1428" from-port="0" to-layer="1435" to-port="0" />
		<edge from-layer="1429" from-port="0" to-layer="1435" to-port="1" />
		<edge from-layer="1430" from-port="0" to-layer="1435" to-port="2" />
		<edge from-layer="1431" from-port="1" to-layer="1434" to-port="0" />
		<edge from-layer="1431" from-port="1" to-layer="1445" to-port="0" />
		<edge from-layer="1432" from-port="0" to-layer="1434" to-port="1" />
		<edge from-layer="1433" from-port="0" to-layer="1434" to-port="2" />
		<edge from-layer="1434" from-port="3" to-layer="1435" to-port="3" />
		<edge from-layer="1434" from-port="3" to-layer="1447" to-port="2" />
		<edge from-layer="1435" from-port="4" to-layer="1436" to-port="1" />
		<edge from-layer="1436" from-port="2" to-layer="1438" to-port="0" />
		<edge from-layer="1437" from-port="0" to-layer="1438" to-port="1" />
		<edge from-layer="1438" from-port="2" to-layer="1439" to-port="0" />
		<edge from-layer="1439" from-port="1" to-layer="1442" to-port="0" />
		<edge from-layer="1440" from-port="0" to-layer="1441" to-port="0" />
		<edge from-layer="1441" from-port="1" to-layer="1442" to-port="1" />
		<edge from-layer="1442" from-port="2" to-layer="1448" to-port="0" />
		<edge from-layer="1443" from-port="0" to-layer="1445" to-port="1" />
		<edge from-layer="1444" from-port="0" to-layer="1445" to-port="2" />
		<edge from-layer="1445" from-port="3" to-layer="1447" to-port="0" />
		<edge from-layer="1446" from-port="0" to-layer="1447" to-port="1" />
		<edge from-layer="1447" from-port="3" to-layer="1448" to-port="1" />
		<edge from-layer="1448" from-port="2" to-layer="1463" to-port="0" />
		<edge from-layer="1448" from-port="2" to-layer="1483" to-port="0" />
		<edge from-layer="1448" from-port="2" to-layer="1452" to-port="0" />
		<edge from-layer="1449" from-port="0" to-layer="1463" to-port="1" />
		<edge from-layer="1450" from-port="0" to-layer="1461" to-port="0" />
		<edge from-layer="1451" from-port="0" to-layer="1461" to-port="1" />
		<edge from-layer="1452" from-port="1" to-layer="1455" to-port="0" />
		<edge from-layer="1453" from-port="0" to-layer="1455" to-port="1" />
		<edge from-layer="1454" from-port="0" to-layer="1455" to-port="2" />
		<edge from-layer="1455" from-port="3" to-layer="1457" to-port="0" />
		<edge from-layer="1456" from-port="0" to-layer="1457" to-port="1" />
		<edge from-layer="1457" from-port="2" to-layer="1459" to-port="0" />
		<edge from-layer="1458" from-port="0" to-layer="1459" to-port="1" />
		<edge from-layer="1459" from-port="2" to-layer="1480" to-port="0" />
		<edge from-layer="1459" from-port="2" to-layer="1477" to-port="2" />
		<edge from-layer="1459" from-port="2" to-layer="1461" to-port="2" />
		<edge from-layer="1460" from-port="0" to-layer="1461" to-port="3" />
		<edge from-layer="1461" from-port="4" to-layer="1463" to-port="2" />
		<edge from-layer="1462" from-port="0" to-layer="1463" to-port="3" />
		<edge from-layer="1463" from-port="4" to-layer="1464" to-port="1" />
		<edge from-layer="1464" from-port="2" to-layer="1473" to-port="0" />
		<edge from-layer="1464" from-port="2" to-layer="1498" to-port="1" />
		<edge from-layer="1465" from-port="0" to-layer="1466" to-port="0" />
		<edge from-layer="1466" from-port="1" to-layer="1473" to-port="1" />
		<edge from-layer="1467" from-port="0" to-layer="1468" to-port="0" />
		<edge from-layer="1468" from-port="1" to-layer="1473" to-port="2" />
		<edge from-layer="1469" from-port="0" to-layer="1470" to-port="0" />
		<edge from-layer="1470" from-port="1" to-layer="1473" to-port="3" />
		<edge from-layer="1471" from-port="0" to-layer="1472" to-port="0" />
		<edge from-layer="1472" from-port="1" to-layer="1473" to-port="4" />
		<edge from-layer="1473" from-port="5" to-layer="1494" to-port="0" />
		<edge from-layer="1474" from-port="0" to-layer="1477" to-port="0" />
		<edge from-layer="1475" from-port="0" to-layer="1477" to-port="1" />
		<edge from-layer="1475" from-port="0" to-layer="1481" to-port="1" />
		<edge from-layer="1476" from-port="0" to-layer="1477" to-port="3" />
		<edge from-layer="1476" from-port="0" to-layer="1481" to-port="3" />
		<edge from-layer="1477" from-port="4" to-layer="1483" to-port="1" />
		<edge from-layer="1478" from-port="0" to-layer="1481" to-port="0" />
		<edge from-layer="1479" from-port="0" to-layer="1480" to-port="1" />
		<edge from-layer="1480" from-port="2" to-layer="1481" to-port="2" />
		<edge from-layer="1481" from-port="4" to-layer="1483" to-port="2" />
		<edge from-layer="1482" from-port="0" to-layer="1483" to-port="3" />
		<edge from-layer="1483" from-port="4" to-layer="1484" to-port="1" />
		<edge from-layer="1484" from-port="2" to-layer="1493" to-port="0" />
		<edge from-layer="1484" from-port="2" to-layer="1498" to-port="0" />
		<edge from-layer="1485" from-port="0" to-layer="1486" to-port="0" />
		<edge from-layer="1486" from-port="1" to-layer="1493" to-port="1" />
		<edge from-layer="1487" from-port="0" to-layer="1488" to-port="0" />
		<edge from-layer="1488" from-port="1" to-layer="1493" to-port="2" />
		<edge from-layer="1489" from-port="0" to-layer="1490" to-port="0" />
		<edge from-layer="1490" from-port="1" to-layer="1493" to-port="3" />
		<edge from-layer="1491" from-port="0" to-layer="1492" to-port="0" />
		<edge from-layer="1492" from-port="1" to-layer="1493" to-port="4" />
		<edge from-layer="1493" from-port="5" to-layer="1494" to-port="1" />
		<edge from-layer="1494" from-port="2" to-layer="1497" to-port="0" />
		<edge from-layer="1495" from-port="0" to-layer="1496" to-port="0" />
		<edge from-layer="1496" from-port="1" to-layer="1497" to-port="1" />
		<edge from-layer="1497" from-port="2" to-layer="1499" to-port="0" />
		<edge from-layer="1498" from-port="2" to-layer="1499" to-port="1" />
		<edge from-layer="1499" from-port="2" to-layer="1536" to-port="0" />
		<edge from-layer="1500" from-port="0" to-layer="1501" to-port="0" />
		<edge from-layer="1501" from-port="1" to-layer="1507" to-port="0" />
		<edge from-layer="1502" from-port="2" to-layer="1504" to-port="0" />
		<edge from-layer="1503" from-port="0" to-layer="1504" to-port="1" />
		<edge from-layer="1504" from-port="2" to-layer="1506" to-port="0" />
		<edge from-layer="1505" from-port="0" to-layer="1506" to-port="1" />
		<edge from-layer="1506" from-port="2" to-layer="1507" to-port="1" />
		<edge from-layer="1507" from-port="2" to-layer="1510" to-port="0" />
		<edge from-layer="1508" from-port="0" to-layer="1509" to-port="0" />
		<edge from-layer="1509" from-port="1" to-layer="1510" to-port="1" />
		<edge from-layer="1510" from-port="2" to-layer="1533" to-port="0" />
		<edge from-layer="1511" from-port="0" to-layer="1512" to-port="0" />
		<edge from-layer="1512" from-port="1" to-layer="1518" to-port="0" />
		<edge from-layer="1513" from-port="2" to-layer="1515" to-port="0" />
		<edge from-layer="1514" from-port="0" to-layer="1515" to-port="1" />
		<edge from-layer="1515" from-port="2" to-layer="1517" to-port="0" />
		<edge from-layer="1516" from-port="0" to-layer="1517" to-port="1" />
		<edge from-layer="1517" from-port="2" to-layer="1518" to-port="1" />
		<edge from-layer="1518" from-port="2" to-layer="1521" to-port="0" />
		<edge from-layer="1519" from-port="0" to-layer="1520" to-port="0" />
		<edge from-layer="1520" from-port="1" to-layer="1521" to-port="1" />
		<edge from-layer="1521" from-port="2" to-layer="1533" to-port="1" />
		<edge from-layer="1522" from-port="0" to-layer="1523" to-port="0" />
		<edge from-layer="1523" from-port="1" to-layer="1529" to-port="0" />
		<edge from-layer="1524" from-port="2" to-layer="1526" to-port="0" />
		<edge from-layer="1525" from-port="0" to-layer="1526" to-port="1" />
		<edge from-layer="1526" from-port="2" to-layer="1528" to-port="0" />
		<edge from-layer="1527" from-port="0" to-layer="1528" to-port="1" />
		<edge from-layer="1528" from-port="2" to-layer="1529" to-port="1" />
		<edge from-layer="1529" from-port="2" to-layer="1532" to-port="0" />
		<edge from-layer="1530" from-port="0" to-layer="1531" to-port="0" />
		<edge from-layer="1531" from-port="1" to-layer="1532" to-port="1" />
		<edge from-layer="1532" from-port="2" to-layer="1533" to-port="2" />
		<edge from-layer="1533" from-port="3" to-layer="1535" to-port="0" />
		<edge from-layer="1534" from-port="0" to-layer="1535" to-port="1" />
		<edge from-layer="1535" from-port="2" to-layer="1536" to-port="1" />
		<edge from-layer="1536" from-port="2" to-layer="1538" to-port="0" />
		<edge from-layer="1537" from-port="1" to-layer="1538" to-port="1" />
		<edge from-layer="1538" from-port="2" to-layer="1539" to-port="0" />
	</edges>
	<rt_info>
		<MO_version value="2023.1.0-12185-9e6b00e51cd-releases/2023/1" />
		<Runtime_version value="2023.1.0-12185-9e6b00e51cd-releases/2023/1" />
		<conversion_parameters>
			<framework value="onnx" />
			<input_model value="DIR/card-detect-0728.onnx" />
			<is_python_api_used value="True" />
			<model_name value="card-detect-0728" />
		</conversion_parameters>
		<framework>
			<author value="Ultralytics" />
			<batch value="1" />
			<date value="2023-10-23T13:04:12.262534" />
			<description value="Ultralytics card-detect-0728 model trained on ./data.yaml" />
			<imgsz value="[640, 640]" />
			<license value="AGPL-3.0 https://ultralytics.com/license" />
			<names value="{0: '10C', 1: '10D', 2: '10H', 3: '10S', 4: '2C', 5: '2D', 6: '2H', 7: '2S', 8: '3C', 9: '3D', 10: '3H', 11: '3S', 12: '4C', 13: '4D', 14: '4H', 15: '4S', 16: '5C', 17: '5D', 18: '5H', 19: '5S', 20: '6C', 21: '6D', 22: '6H', 23: '6S', 24: '7C', 25: '7D', 26: '7H', 27: '7S', 28: '8C', 29: '8D', 30: '8H', 31: '8S', 32: '9C', 33: '9D', 34: '9H', 35: '9S', 36: 'AC', 37: 'AD', 38: 'AH', 39: 'AS', 40: 'JC', 41: 'JD', 42: 'JH', 43: 'JS', 44: 'KC', 45: 'KD', 46: 'KH', 47: 'KS', 48: 'QC', 49: 'QD', 50: 'QH', 51: 'QS'}" />
			<stride value="32" />
			<task value="detect" />
			<version value="8.0.200" />
		</framework>
		<legacy_frontend value="False" />
		<model_info>
			<iou_threshold value="0.7" />
			<labels value="10C 10D 10H 10S 2C 2D 2H 2S 3C 3D 3H 3S 4C 4D 4H 4S 5C 5D 5H 5S 6C 6D 6H 6S 7C 7D 7H 7S 8C 8D 8H 8S 9C 9D 9H 9S AC AD AH AS JC JD JH JS KC KD KH KS QC QD QH QS" />
			<model_type value="YOLOv8" />
			<pad_value value="114" />
			<resize_type value="fit_to_window_letterbox" />
			<reverse_input_channels value="YES" />
			<scale_values value="255" />
		</model_info>
		<nncf>
			<quantization>
				<advanced_parameters value="{}" />
				<fast_bias_correction value="True" />
				<ignored_scope>
					<names value="['/model.22/dfl/conv/Conv', '/model.22/Add', '/model.22/Add_1', '/model.22/Add_2', '/model.22/Add_3', '/model.22/Add_4', '/model.22/Add_5', '/model.22/Add_6', '/model.22/Add_7', '/model.22/Add_8', '/model.22/Add_9', '/model.22/Add_10']" />
					<patterns value="[]" />
					<types value="['Multiply', 'Subtract', 'Sigmoid']" />
					<validate value="True" />
				</ignored_scope>
				<model_type value="None" />
				<preset value="mixed" />
				<subset_size value="300" />
				<target_device value="ANY" />
			</quantization>
		</nncf>
	</rt_info>
</net>
